archive/super_resolution/SRCNN_2/trained_models/SRCNN_1000epochs.pt (torch, 150306 bytes, 6 tensors)

weight f4 [64, 3, 9, 9]
000000 3b 20 5b 3d 2a e2 a9 bb b7 62 7c bd 1e 79 8c bd
       0.053497534 -0.0051844316 -0.06161758 -0.06859039
000010 50 6d 55 bd ef 24 4d 3d 14 c4 d1 bc 28 85 84 bd
       -0.0521062 0.05008405 -0.025606193 -0.0647071
000020 d5 ec 28 3b ca 4b 65 3c f8 bb 31 bc 87 95 25 3d
       0.0025775929 0.01399512 -0.010848038 0.040425804
000030 d7 eb 3a 3d e8 6f 84 3d 7e 10 92 bc ca 4e 5e bc
       0.04563507 0.06466657 -0.01783013 -0.013568589
000040 9e d9 47 3d 36 30 1c 3d 8a 30 b7 3c f3 14 26 3d
       0.04879152 0.038131915 0.022362012 0.040547322
000050 a4 05 a7 bc 5c 44 be bc c0 30 93 3c b0 26 34 3d
       -0.020388432 -0.023225956 0.017967582 0.043982208
000060 d4 dc 26 bc d2 28 64 bd 57 35 44 3a 29 ca d2 bc
       -0.010184485 -0.05570299 0.0007484755 -0.025731163
000070 f6 82 be 3b 5d 1a 17 bd 37 0b 4c 3d 79 3f 47 3c
       0.0058139516 -0.036890376 0.049815383 0.012161129
000080 81 f2 c3 3c 77 bf 20 3c ea 7b 67 3d 99 da 78 bd
       0.023919346 0.009811274 0.056514658 -0.060755346
000090 35 d7 2e 3d d1 37 e0 bc f0 e7 2c bc cc 42 34 3d
       0.042685706 -0.027370365 -0.010553345 0.044009015
0000a0 a3 96 14 3d fd 35 50 3d f9 46 58 3d f8 6e 82 bc
       0.03627647 0.050832737 0.05280206 -0.015922055
0000b0 e8 7b 22 3d c3 97 22 bd e6 0e 4e 3d 24 a9 69 bd
       0.039668947 -0.039695513 0.050307177 -0.05704607
0000c0 b8 84 38 bd 28 50 f5 3c ec bc 35 bd 63 60 0e 3d
       -0.045048445 0.029945448 -0.044369623 0.03475989
0000d0 39 f9 e4 bc 20 e2 76 3d 4b 0f 30 3d 5c 23 0e bd
       -0.02795087 0.060274243 0.042983335 -0.03470169
0000e0 e2 4b 40 3c a8 d0 2d 3d 92 87 29 3d 4a 6d 6a bd
       0.011736842 0.04243532 0.041389056 -0.057233132
0000f0 00 f1 65 3c fd ba bb 3c 6d e3 6c bd 8a 01 50 bd
       0.01403451 0.022916311 -0.057834078 -0.050782718
000100 35 7e 39 bd 65 aa 05 3d ce 41 67 3d 3a d8 a6 bb
       -0.045286376 0.032633204 0.05645924 -0.005091694
000110 be 58 38 3d 48 29 17 3d d9 57 ae 3c 52 1b 37 3c
       0.045006506 0.036904603 0.021282123 0.011175947
000120 45 d3 4c 3c b7 b8 ad 3c f0 d2 83 3c fb 82 26 3d
       0.012501542 0.021206243 0.016091794 0.040652256
000130 8c 20 c1 bc ee 1b 84 bd cb d3 49 3d 26 64 40 3d
       -0.02357509 -0.0645064 0.049274247 0.04697051
000140 2d 60 13 bd 8f 63 6e bd 02 37 2c 3d 54 c2 00 3d
       -0.035980392 -0.058200415 0.042044647 0.031435326
000150 47 02 b6 3c 34 af 4d 3d 77 d7 fe bc 12 0b 96 38
       0.022217883 0.050215915 -0.031108601 7.1546194e-05
000160 19 40 fe bc 1f 74 a1 bb e4 e0 1f 3d 6c 86 46 3c
       -0.031036424 -0.004927173 0.03903283 0.01211701
000170 e5 ca e5 bb 17 df 81 bd c1 92 b0 3c 0f ac a0 bc
       -0.0070127123 -0.06341379 0.021554353 -0.019613294
000180 4f f8 24 bd 61 64 30 3d 25 c2 45 3d 06 77 78 bc
       -0.040275868 0.04306448 0.048280854 -0.015165096
000190 86 2b 45 bd 3b 6c 26 3d 93 17 0d bd 6f c2 08 3d
       -0.04813721 0.04063056 -0.03444631 0.03338855
0001a0 30 d3 65 3d a9 f9 56 bd 05 42 a8 39 1b 38 66 bb
       0.056109607 -0.05248419 0.00032092645 -0.0035128656
0001b0 da a9 83 3c 48 e1 54 3d 50 cb 81 3d f1 a0 b8 3b
       0.016072202 0.051972657 0.06337607 0.00563442
0001c0 83 7e 98 3d aa 43 38 3d 5a bc 65 3d b0 55 70 bd
       0.07446005 0.044986404 0.05608783 -0.058675468
0001d0 1d ee 49 3c 8b 9a 9b 3b a1 d6 5f bd 18 58 17 3c
       0.012324837 0.0047486476 -0.054648045 0.009237312
0001e0 ba 3a 5a bd ae 73 c3 3b 82 9a 5a bd d6 6a 5d bd
       -0.053278662 0.005964718 -0.053370006 -0.054056965
0001f0 0e 4f 75 3d 8d b7 93 bb 1d a6 64 3d 32 cd 28 bb
       0.059889846 -0.004507965 0.05582248 -0.0025757072
000200 37 86 48 3d f5 d2 27 bd 03 1e 24 3d e2 a6 0a bd
       0.048956122 -0.04097267 0.040067684 -0.033850558
000210 38 e9 20 3d 4e e3 6c bd 4c 2c 2d 3d d1 45 a7 3c
       0.039284915 -0.057833962 0.042278573 0.020419033
000220 6d ca 27 3d ea 32 3c 3c 6f 42 f0 3c 72 aa 2d 3c
       0.040964533 0.011486748 0.029328553 0.010599719
000230 3c ce 58 bd 16 9d 58 3d 43 05 cb bc 1f 88 93 bc
       -0.052931055 0.052884184 -0.024782782 -0.018009244
000240 7b 71 64 3d 98 ae a4 3c d3 1d 37 bd 16 03 6d 3d
       0.055772286 0.020102784 -0.044706177 0.05786427
000250 8f 7b d9 3c b2 8d 8b bc 63 26 ed bc 6f 6f ed 3c
       0.026548175 -0.017035339 -0.028948968 0.0289838
000260 48 ee b1 bc 9a 76 fd bc cb fd 15 bd 3e ff 6b bd
       -0.021720067 -0.030940343 -0.03661899 -0.057616465
000270 0c bb 40 bd 98 8e 49 3b 90 1e 53 3d 2c 07 de bc
       -0.04705338 0.0030755159 0.05154282 -0.02710303
000280 91 04 83 38 36 97 c3 bc 35 96 0f bd 26 2f fa bc
       6.247417e-05 -0.023875814 -0.035055358 -0.03054006
000290 a0 52 8c 3a be 94 28 bd 64 cc a2 3c 0a 6e b8 bc
       0.0010705777 -0.041157477 0.019872852 -0.022513408
0002a0 5b cf 03 bb 3b 41 d9 bb 78 ff 0c bd d2 6c 58 bd
       -0.0020112607 -0.0066300905 -0.03442332 -0.052838154
0002b0 e5 5c 13 bd c7 de c8 3c 44 39 79 bd f1 5e 02 bd
       -0.035977263 0.024520291 -0.06084563 -0.031828824
0002c0 ec ab 7b bd bd 4a 48 bd 9a 77 1c bc 54 7b 7b 3b
       -0.061443254 -0.0488994 -0.00955 0.003837307
0002d0 56 31 80 3d f7 3b 9d 3c 22 fc 48 3d f7 dc 80 3d
       0.0625941 0.019193633 0.049068578 0.06292146
0002e0 b5 bb 8d bc 57 a0 19 3d 34 63 2e 3d 0d 12 e2 bc
       -0.01730142 0.037506428 0.042575076 -0.027596498
0002f0 34 5d 1d bd ae 20 1f bd 49 45 10 bd 89 c7 f7 bb
       -0.038418964 -0.038849525 -0.035222325 -0.0075616282
000300 07 87 23 3d 1a ae ac 3c ef f6 23 bd 51 ec 7a 3c
       0.039923694 0.021079112 -0.040030416 0.015315131
000310 97 47 a7 3c c5 09 09 3d 40 27 0f 3d f0 97 aa ba
       0.020419879 0.033456583 0.03494954 -0.0013015252
000320 51 fd e0 3c 1f 32 3f bd 53 23 2d ba bf b8 36 3d
       0.02746454 -0.04667866 -0.000660469 0.04460978
000330 c2 12 14 3d 53 a4 12 bb e4 50 13 bc a2 67 fc 3c
       0.0361507 -0.0022375777 -0.008991454 0.030811135
000340 5a 7a 3f 3d 65 5e 39 3d 54 41 15 bd 3e 05 bb 3c
       0.046747543 0.045256037 -0.036439255 0.022829648
000350 b8 f6 2f 3d 4d 6d 44 bc 76 fd f0 3b 55 d3 2a bc
       0.0429599 -0.01198895 0.0073544336 -0.010426362
000360 b6 ea d5 3c ad 3f ca bc e8 a4 a9 bc 8a d9 97 3c
       0.026112895 -0.024688566 -0.020708516 0.018536348
000370 ca 73 59 3d a6 0e 15 3d 71 ed 5b 3d dc 80 75 bb
       0.05308894 0.036390923 0.05369324 -0.003746084
000380 14 0b 61 bc be f9 45 3d 4f d8 11 3d 70 e4 09 3b
       -0.013735551 0.048333876 0.03560668 0.00210407
000390 03 52 83 bd b1 00 11 bc c9 4f e7 bc 53 f7 4d 3c
       -0.06412127 -0.0088502625 -0.028236287 0.012571174
0003a0 03 32 1f bc 79 e5 f4 3b fb 41 00 3d 80 d9 4c bd
       -0.009716514 0.0074736443 0.031312924 -0.05001211
0003b0 27 f8 51 bd a2 07 58 3d 4b 93 0f bd d2 e8 d7 3c
       -0.051262047 0.052741654 -0.03505258 0.026356135
0003c0 fc 28 40 3d 56 c0 db ba 29 09 a6 ba fe d1 4a bd
       0.046914086 -0.0016765695 -0.0012667525 -0.04951667
0003d0 e1 ff 17 bd 24 3d 4e bc 73 75 6f 3b 65 c7 17 3d
       -0.03710926 -0.012587819 0.003653851 0.03705539
0003e0 e0 85 97 bc 13 a9 20 bd f5 9d 46 bd 6c cf 63 3d
       -0.018496454 -0.03922374 -0.048490483 0.055617735
0003f0 5b 5d 68 3b e7 69 73 3d 73 27 7d bd 29 07 75 bd
       0.0035456035 0.05942717 -0.0618052 -0.05982128

bias f4 [64]
000000 96 05 24 3d 64 cd 66 3d 98 c1 37 bd 1a 1b 04 bd
       0.04004439 0.05634822 -0.04486236 -0.03225241
000010 9e 11 05 bd 86 69 48 bd 80 3a 89 3c 7a 74 58 3d
       -0.032487504 -0.04892876 0.016751528 0.052845456
000020 5d 90 50 3d 66 79 c5 bc cf d3 ea bc 4c 83 4f bb
       0.050918926 -0.024105739 -0.028665451 -0.0031663952
000030 0f ac 27 3d 29 55 01 bd db 2d a7 3b a5 24 37 3d
       0.040935572 -0.031575356 0.005101902 0.04471268
000040 de d7 37 3d 76 0c e6 3c 02 0f c1 bc 80 2e 8d bb
       0.0448836 0.028082114 -0.023566727 -0.0043085217
000050 b8 00 2d 3d 1d eb 28 3d 86 fa 04 bd 88 e1 a6 3a
       0.042237014 0.041239846 -0.03246548 0.0012732008
000060 94 06 14 bd 63 e0 aa 3a f3 d4 12 bd 37 9c 17 3d
       -0.036139086 0.0013036843 -0.035847615 0.037014212
000070 9e 26 b0 3b 56 84 dd bc 20 ca fc 3c c2 1d b3 bc
       0.0053756973 -0.027040642 0.0308581 -0.021864776
000080 b9 a3 17 bd f6 5e 29 3c 39 c0 c0 bb 69 27 39 3a
       -0.037021372 0.010337582 -0.0058822897 0.00070630625
000090 8b ea e4 bc 5d d8 17 bd e4 71 fa bc da 94 7c bc
       -0.02794387 -0.037071574 -0.030571885 -0.015416348
0000a0 5a 9b b6 3c 62 80 a6 3c cf 49 79 3d eb 1d 34 bd
       0.022290874 0.02032489 0.060861405 -0.043973844
0000b0 67 d1 05 3d 05 d7 42 bd 93 9f cf 3b 69 b3 17 bd
       0.032670405 -0.04756834 0.0063361614 -0.037036333
0000c0 29 37 6c 3d 3a 16 51 bd 85 fa 79 3b a6 fc b0 3c
       0.057669792 -0.051046588 0.0038143706 0.021604847
0000d0 71 c7 73 bd fb 50 19 3d 38 45 c6 bc 91 fe bd bc
       -0.059516374 0.037430745 -0.024202928 -0.023192676
0000e0 a2 31 4e 3d 54 64 0a 3d 1d 7c 53 bd b0 08 4d 3c
       0.050340302 0.033787087 -0.051632036 0.012514278
0000f0 af c1 14 bd 18 0d 1a 3d 11 68 83 3d d4 77 65 bd
       -0.036317524 0.037610143 0.064163335 -0.05602248

weight f4 [32, 64, 3, 3]
000000 3a dd d9 3b 76 13 14 3d 73 9a 01 3d fd 17 ae bb
       0.0066486867 0.036151372 0.031641435 -0.005312918
000010 85 27 a8 bc 19 c2 79 bb 0d 00 ad 3c 16 be 9d ba
       -0.020526657 -0.0038110076 0.021118188 -0.00120348
000020 52 3f da bc fb 43 a6 3c fd 27 c1 3c 6b b8 1a 3d
       -0.026641522 0.020296087 0.023578638 0.03777353
000030 fc 41 27 bc 5c d0 53 bb 97 5d be bc 51 ff a5 bc
       -0.010208603 -0.0032320237 -0.023237986 -0.020263346
000040 38 17 f8 3c 97 64 8a 3c 3b 27 53 3c 76 7b 26 3b
       0.030284509 0.016893668 0.012887771 0.0025403178
000050 a1 d1 ad 3b 7e a6 c4 3c bf 8d af 3b a6 14 17 bd
       0.0053045307 0.02400517 0.0053574736 -0.036884926
000060 b2 ef 8e ba 06 c0 20 bd 56 13 02 3d e5 5f 04 3d
       -0.0010905175 -0.039245628 0.03175672 0.032318015
000070 98 91 bd bc ab 80 fe bc 47 db 20 3d 36 27 ee 3c
       -0.023140714 -0.031067213 0.03927162 0.029071432
000080 8a fa 7c b9 28 39 ef 3b 30 5e 01 bc 06 05 aa bc
       -0.00024125926 0.0073005147 -0.007895991 -0.020754348
000090 59 7f 0a 3d c7 60 cd 3c 46 15 a5 bb e7 a3 01 bd
       0.033812854 0.025070561 -0.0050379364 -0.03165045
0000a0 fa bc 11 3c 7d 85 f5 bc b4 1a 04 3d 8a e2 c0 bc
       0.008895153 -0.029970879 0.03225203 -0.023545522
0000b0 81 d4 bd 3a d9 58 16 3d c8 84 f0 bc f6 b0 f1 bc
       0.0014482887 0.036705825 -0.02936019 -0.029503327
0000c0 89 79 11 3d b5 38 1e 3d c6 21 cb 3c 00 13 5e b9
       0.035516296 0.0386283 0.024796378 -0.00021178648
0000d0 c3 0e 9d bc b0 d0 a9 bc 7a 55 47 bb e8 e6 02 3b
       -0.019172078 -0.020729393 -0.0030415938 0.0019974057
0000e0 0e 6b 4d bc 74 71 37 bc d0 fa a3 3c 41 5f e3 bc
       -0.012537731 -0.011196483 0.020017058 -0.027755382
0000f0 5e a3 45 3c 79 02 0a bd d3 bc 5d bc f0 f7 45 3a
       0.012062876 -0.033693764 -0.013533789 0.0007551899
000100 75 f3 84 bc 11 48 54 bc 3a db 2e bd 07 c1 16 bb
       -0.01622937 -0.012956635 -0.04268954 -0.0023003237
000110 c6 ea 78 bc cb 42 50 bc a4 cd 27 bd 2c 57 62 bc
       -0.015192693 -0.012711237 -0.0409676 -0.013814729
000120 9a f3 55 3c 45 4e b4 bc 52 e7 75 3c 64 07 3b bc
       0.013058567 -0.022009978 0.015008764 -0.011415336
000130 0f 44 72 3c 7f cf 20 bd 7a 87 1c 3d c7 5a 24 3c
       0.014786734 -0.039260384 0.038215138 0.010031409
000140 57 de 86 3c a7 04 c4 bc 0d 2d fd 3c 56 94 c0 bc
       0.016463442 -0.023928 0.030905271 -0.023508232
000150 c4 02 3c 3d 89 77 08 3d 03 f3 e5 bb a5 2d 25 3d
       0.045901075 0.033317123 -0.0070174946 0.040326733
000160 f9 87 75 bc e4 59 ad 3c 99 93 aa 3c 09 94 ae 3c
       -0.014986032 0.021161027 0.020822333 0.021310823
000170 80 5b 72 bc c0 5b 68 bc 05 52 47 bb 5c c6 11 3d
       -0.014792323 -0.014182031 -0.0030413878 0.03558956
000180 f2 26 11 bd 75 37 f8 3a db 1c 2f 3d 9a e1 bc 3c
       -0.03543753 0.0018937426 0.042752128 0.023056794
000190 f2 b1 dd 3c a2 23 bc 3c 40 65 00 bd 30 7c 1a 3c
       0.02706239 0.02296621 -0.03134656 0.009429023
0001a0 d8 1d bb 3b ee b9 03 bd c4 8c 3e 3c 68 19 dc 3b
       0.0057103448 -0.03215974 0.011630241 0.006716896
0001b0 ba cd b8 3b 3e f9 1a 3d e7 47 64 3c 53 16 4c bc
       0.005639759 0.037835352 0.0139331585 -0.012456494
0001c0 de 8c f7 bc bf c3 c8 3b 82 fb 71 bc f1 3d 10 bc
       -0.030218538 0.0061268504 -0.014769437 -0.0088038305
0001d0 de 0e 0e bc b8 62 ba bc 77 a9 08 bd 41 12 d9 3c
       -0.008670537 -0.02275215 -0.03336474 0.026497962
0001e0 3b 9c 08 bd d1 0d a4 bc 65 b0 b4 bc f6 47 98 bc
       -0.033352118 -0.02002612 -0.022056768 -0.018589001
0001f0 90 fc 98 3c 46 65 2d bd b1 d7 15 3c d5 48 15 3d
       0.018675119 -0.04233291 0.009145663 0.03644641
000200 c4 d3 47 3b 56 cf 28 3d ab b2 15 3d b6 e0 5b bc
       0.0030491212 0.041213356 0.036547344 -0.0134202745
000210 52 fe eb bc 4f 46 c5 bc b5 13 3b 3d 08 b2 37 bb
       -0.028807793 -0.024081377 0.04567309 -0.00280297
000220 1c 19 03 bd 91 a8 a7 3c 04 39 b3 bc 49 72 a6 bb
       -0.032006368 0.02046612 -0.021877773 -0.005079542
000230 2f 29 24 3d 95 e5 86 3b 1a 5a e9 3c 42 e4 03 3d
       0.04007834 0.004116724 0.028485347 0.032200105
000240 ea 46 0d 3d f9 ff cb 3c 0c cf 85 bb 6d 24 f6 3c
       0.034491457 0.02490233 -0.00408352 0.030046666
000250 5a 18 1a bd 83 16 b7 bc 22 8f 07 3d 15 2b 28 bc
       -0.03762088 -0.022349602 0.033095486 -0.010264178
000260 bf 75 99 bc bd e9 07 3d ca 71 f0 3c 6f ed 03 bd
       -0.018732904 0.033181895 0.029351134 -0.032208856
000270 61 c9 01 3d 4c f9 32 bc 4e 71 16 bd 72 db 0f bd
       0.03168619 -0.010923695 -0.03672915 -0.03512139
000280 18 ba cd bc d8 5b bf bc 2c e6 0f bc 2e bb a8 bc
       -0.02511315 -0.023359224 -0.008782905 -0.020597067
000290 05 a6 14 3d 84 23 05 3c f8 87 ff bb 60 05 cd bb
       0.03629114 0.008126143 -0.007798191 -0.0062567443
0002a0 bc e3 6e 3c 84 31 32 3c 13 f3 0f 3d b0 46 7b bb
       0.014580663 0.010876063 0.035143923 -0.0038341694
0002b0 80 f5 de bb fe 0c af bc 5c 55 0b bc 0e 44 fb 3c
       -0.006804168 -0.0213685 -0.008504238 0.0306721
0002c0 60 45 c4 3a fd 70 1a 3d 75 63 26 3d 96 c5 ab bc
       0.0014974289 0.03770541 0.040622193 -0.02096824
0002d0 e0 46 a3 ba 80 24 ee 3a f4 7d 16 3c 65 2f 09 38
       -0.0012457035 0.0018168837 0.009185303 3.2707485e-05
0002e0 e0 88 b3 3b e2 50 c5 3c d6 c8 d8 3c 0b 66 18 3d
       0.0054789633 0.02408642 0.026462954 0.03720669
0002f0 b0 62 1e bc 48 0b 83 bc ec 8f 10 bd fa 37 a5 3c
       -0.009667084 -0.01599659 -0.035293505 0.020168293
000300 e8 af fa 3b c6 f3 6b bc 60 5b d6 3b e7 cd 0a bd
       0.007650364 -0.014401382 0.0065416545 -0.03388777
000310 04 a8 57 3c a0 63 5d bc 3f 2c 79 bc ba d6 b5 bb
       0.013162617 -0.013512522 -0.015208303 -0.005549279
000320 73 47 d2 bc f0 7f aa 3c 84 54 30 bb e5 e4 f8 bc
       -0.025668835 0.020812958 -0.0026905844 -0.030382583
000330 b2 65 a7 3c af 71 1a 3d cf 1c 9e 3a a0 2c b3 bc
       0.020434234 0.037706073 0.0012063029 -0.021871865
000340 7a 7e bf 3b 43 f4 22 bc 4f db 19 bd 95 86 a0 bc
       0.0058439346 -0.009945932 -0.037562665 -0.019595424
000350 79 38 8c 3c a2 43 42 3c c5 9c 2a bd 9f de f7 3c
       0.017116772 0.011856945 -0.041653413 0.030257521
000360 40 38 3a bb 2e 27 f1 bc 06 13 03 bd b3 7c 21 bd
       -0.0028414875 -0.029437628 -0.032000564 -0.039425563
000370 9e 9f df bc 59 a4 0f 3d 31 54 07 3d 2c a7 0b bd
       -0.027297791 0.035068844 0.033039276 -0.034094974
000380 86 80 bd bc 68 ec cc bc 81 d2 25 3d c0 d8 1a 3a
       -0.023132574 -0.025015071 0.040483955 0.0005906932
000390 0c ca 66 bc a0 49 92 3c e8 c0 ee 3b b0 27 14 3b
       -0.014086258 0.017857373 0.00728618 0.0022606663
0003a0 a4 c3 0f 3c a0 60 ed bc 12 45 f2 3c da 7f 91 bb
       0.008774672 -0.028976738 0.02957395 -0.00444029
0003b0 ad d8 e4 bb 35 5d 95 bc 6b 58 a0 3c 51 58 24 3d
       -0.0069838376 -0.018232921 0.019573411 0.040123288
0003c0 c0 c5 f2 bc 3e bf ee 3b cb 76 1a 3d b3 3a 8e ba
       -0.02963531 0.0072859814 0.037710946 -0.0010851234
0003d0 40 b4 23 3c 62 78 3b 3b d8 10 88 bc 7a 69 20 bd
       0.009991705 0.002860569 -0.016609594 -0.03916309
0003e0 66 91 e6 bc 5e f9 ca bc 13 e0 db bc 34 26 4d 3c
       -0.028145503 -0.02477711 -0.026840245 0.012521315
0003f0 83 5e 91 bb 70 8b 40 ba 41 1f bc 3c 48 bc 85 3c
       -0.0044363155 -0.00073449966 0.022964122 0.016325131

bias f4 [32]
000000 82 ef d2 bc 5a a2 67 3d fe 59 72 bc a5 95 1c 3d
       -0.025748972 0.056551315 -0.014791964 0.03822865
000010 ce 64 c7 bc 22 d6 18 bd a3 08 cb bb 07 f5 05 3c
       -0.02434006 -0.037313588 -0.006196098 0.008176095
000020 8d 43 65 bc 9b 42 c4 bb 03 f8 74 3c fd f0 9d bc
       -0.013993156 -0.0059893853 0.014951709 -0.019279951
000030 78 be 67 3b 0a 56 55 bc 6d e7 0c 3d f0 3c aa bc
       0.003536133 -0.013021002 0.034400392 -0.02078101
000040 17 a0 34 bc 52 db 32 3d de 9c b9 3c 15 94 ef 3c
       -0.0110244965 0.04366619 0.022657808 0.029245416
000050 83 50 ad bc 48 a0 06 3d b1 4b 27 3d 00 94 10 bd
       -0.021156555 0.0328677 0.04084367 -0.035297394
000060 3f 6d bb bb e6 fb 10 bd 4e f7 19 bc 17 39 96 bc
       -0.0057198103 -0.03539648 -0.009397341 -0.01833777
000070 3d 9d d0 bc 4a 6b eb 3c 5a 5e a6 3c 74 fb 13 bb
       -0.025465602 0.028737683 0.020308662 -0.0022580298

weight f4 [3, 32, 5, 5]
000000 d6 5a e8 3c a7 bd ee 3c e8 5d f8 bc 74 2b cf 3b
       0.028363626 0.029143168 -0.030318215 0.0063223187
000010 1a c2 14 3c 7c a0 61 bb 67 d1 49 3c 40 ba a2 bc
       0.009079481 -0.0034427932 0.012317992 -0.019864202
000020 6d 84 39 3b fa 99 24 bd 20 15 d3 bc b9 9e 7a bc
       0.0028307692 -0.040185906 -0.02576691 -0.0152966315
000030 f2 fd 93 bc ad d5 e0 bb 31 cf 46 3b c0 ae 5e 3c
       -0.018065426 -0.0068614096 0.0030335898 0.013591468
000040 1b e3 3d bc 9d bf 04 3b 8b 97 6c bc bb 21 1f bd
       -0.011589791 0.0020255812 -0.0144404275 -0.038850527
000050 f8 2d 1a bd 29 c1 41 3b 72 11 89 ba 8e 2b ef bc
       -0.037641495 0.0029564595 -0.001045747 -0.029195573
000060 36 a3 3b bd 1c df 2b 3c 6d 4b b9 bc e0 1c 14 3d
       -0.045809947 0.010490205 -0.022618974 0.03616035
000070 a8 38 25 3d e5 37 16 bc 8e 89 27 3b 5d cd 42 3c
       0.040337235 -0.0091686 0.0025564167 0.011889783
000080 e0 e6 de bc c0 58 7c bc 48 b7 82 bc 31 b5 87 3b
       -0.0272097 -0.015402019 -0.015956536 0.0041414727
000090 b5 ee f0 bc a4 b6 dc bc 6f 27 15 bc 5e 61 0b 3d
       -0.0294107 -0.026942559 -0.00910364 0.034028403
0000a0 e9 18 08 bd aa a0 de 3b f8 e7 f0 bc ac f5 20 bd
       -0.03322688 0.006794055 -0.029407486 -0.03929679
0000b0 5a 4d ec 3c b5 64 20 bd 58 16 20 bd 84 c0 3d bd
       0.028845478 -0.03915854 -0.03908381 -0.046326175
0000c0 8c 33 10 bd 6b d4 02 3d 57 e4 8c bc 8f 4f 58 3c
       -0.03520541 0.03194086 -0.017198725 0.013202562
0000d0 00 d2 1b 3d b9 f1 b7 bb 83 90 2e 3c 7f fc d4 bc
       0.03804207 -0.0056135324 0.0106545715 -0.025999306
0000e0 c5 5d 96 bc aa e7 83 3c 4c ec a5 3c bf f6 39 3c
       -0.01835526 0.016101677 0.020254277 0.011350333
0000f0 56 36 d4 3c 2c 6d 1a bc 7c 7a 14 3d 1d 7d fd 3c
       0.025904816 -0.009425443 0.036249623 0.030943448
000100 bd 9f a7 3c 6e 57 00 3d 6f 17 c1 3c 3e 58 07 3d
       0.020461911 0.03133338 0.023570744 0.03304314
000110 3c 84 09 3d e6 be b0 3c 38 6c 2a 3c 2a 07 f4 bb
       0.033573374 0.021575402 0.010401778 -0.007447143
000120 e2 cc 96 3c 3b 66 07 bc 17 4e 1b 3d 79 c1 91 bc
       0.018408243 -0.00826412 0.03791627 -0.01779245
000130 20 80 be 3c 7d af 37 bc 3d a5 9b 3c ae 50 e7 3b
       0.023254454 -0.011211273 0.01899969 0.0070591783
000140 44 f1 3c bc 9e 86 cf bb 3d 6c be 3c a1 a3 18 bc
       -0.011532132 -0.0063331863 0.023244971 -0.009316356
000150 ec d3 01 bd 70 b3 1f 3c 8a ca e0 bc 80 25 c4 bc
       -0.031696245 0.009747371 -0.027440328 -0.023943663
000160 f3 07 3d 3c b2 4a 70 b9 57 b6 97 bc d7 ac 5b 3c
       0.01153754 -0.0002291601 -0.018519564 0.013407907
000170 39 26 c2 bb 56 9b 1e 3d 80 4e 8d 3c a5 f0 17 3b
       -0.0059249667 0.03872236 0.017249346 0.0023184207
000180 51 bb 33 bc 68 94 21 3c 79 c1 9d bc c9 11 bd bc
       -0.010969953 0.009862043 -0.019257294 -0.02307977
000190 86 76 94 bc b0 85 45 bc f9 d9 09 3d 5c a4 9c bb
       -0.018122923 -0.012055799 0.03365514 -0.0047803354
0001a0 52 29 f0 3b d1 db 98 3c c0 0e ce 3c 4b 09 72 3b
       0.0073291445 0.018659504 0.025153518 0.0036931809
0001b0 98 32 f7 bc d8 e3 57 3a 61 dc 01 3d 5b 6f 9b 3c
       -0.030175492 0.00082355505 0.03170431 0.018973997
0001c0 b8 d6 ce 3c cf 8b 24 bc a5 76 24 bc e0 d7 0f 3d
       0.02524887 -0.010043099 -0.010038053 0.035117984
0001d0 0f 3e db 3c f8 4e 04 3b 85 25 47 bb b2 6b e1 bc
       0.02676299 0.002018867 -0.0030387354 -0.027517173
0001e0 3e 3a 33 bc 19 85 fc bc df 34 7a 3c 28 eb 00 bd
       -0.010939179 -0.030825185 0.0152713945 -0.031474262
0001f0 87 06 04 3d 52 9a 9d 3c d8 7e 8d 3c 2f 7a 00 bd
       0.032232787 0.019238625 0.017272398 -0.031366523
000200 4b 00 8a bc a6 97 d8 bc 6e ed f7 3c e7 f1 0d 3d
       -0.016845843 -0.0264395 0.030264582 0.034654524
000210 6f ec 02 3d 44 be 8c 3c 72 bc c9 3c ee 6f ec 3c
       0.031963762 0.01718057 0.02462599 0.028861966
000220 c8 63 a5 3b 80 8c 1a bc 42 3a fa bc bc 4e 8d 3c
       0.0050472952 -0.009432912 -0.030545358 0.017249458
000230 74 bf 31 3c 38 4a be 3b 20 bd 3d 3b ef ab 00 bd
       0.010848869 0.0058071874 0.0028951839 -0.03141397
000240 86 c9 cc 3c 72 4b 34 bc 5c a6 87 3c 16 cf f8 3c
       0.024998438 -0.011004316 0.016558819 0.030372184
000250 3e d5 88 bc 2c 95 ad bc 16 ab 18 3d 09 12 24 3d
       -0.016703244 -0.021189295 0.037272535 0.040056262
000260 58 cd 32 3d e9 0b 61 3c 8a e1 67 3c 68 86 82 bc
       0.043652862 0.01373575 0.014152894 -0.01593323
000270 4f 4c 15 3b 8e b8 54 3d c3 17 04 bc 76 b8 9c 3c
       0.002278108 0.051933818 -0.008062306 0.019130927
000280 2c 6f 1b 3c 8c 3d 61 3d ac 23 59 3d 7c 0d 2e 3d
       0.009486955 0.054990336 0.053012535 0.04249333
000290 0e cd 67 3d 48 41 2d bb 97 2d 1a 3d 98 d2 61 3d
       0.05659204 -0.0026436616 0.037641134 0.05513248
0002a0 35 f3 11 3d 52 5c 47 3c e5 fa 58 bc a8 ed 66 3c
       0.03563233 0.012168007 -0.013243412 0.014094748
0002b0 f3 ab 44 3c fb bd c6 3c 63 aa 16 3b 5a 94 d1 3b
       0.0120038865 0.024260512 0.0022989742 0.0063958587
0002c0 e4 df 91 bc f7 57 05 3d f5 84 d2 bc ab 91 42 3c
       -0.017806955 0.032554593 -0.025698164 0.01187555
0002d0 2b e6 d5 3c b7 0e c1 bc 2f c6 88 3c 45 14 07 3c
       0.02611073 -0.023566587 0.016696064 0.008244579
0002e0 79 33 3d bc d0 3b 94 bc c2 d7 9b bc fc 3d 17 3d
       -0.011547917 -0.018094927 -0.01902378 0.036924347
0002f0 97 05 4f 3b cc b1 87 3b 53 f8 09 bd 5a 83 d9 3c
       0.0031589025 0.004141068 -0.033684086 0.026551891
000300 0f 40 5b 3a eb 12 90 3b 97 9b 04 3d a9 5d f7 bc
       0.00083637325 0.0043967864 0.032374945 -0.030196028
000310 8f 6f 9c bc 2f e0 9c 3a 82 1a e8 3c 1d 19 bd bb
       -0.019096164 0.0011968667 0.028332952 -0.005770816
000320 e3 f4 74 3c bd 8b bd bb b2 6b 81 bc 8a ca 9b bc
       0.014950964 -0.0057844804 -0.015798423 -0.019017477
000330 e8 78 0c 3d 22 b1 b7 bc 20 af 06 3d bf f4 0e 3d
       0.034294993 -0.02242333 0.032881856 0.034901377
000340 ad 1e f8 3c 76 50 b5 3c 65 30 04 bd a6 c1 f1 3c
       0.030288065 0.022133093 -0.032272715 0.029511284
000350 84 1e 11 3d d3 b0 0e 3d 1e 59 cc bc 9b e9 a0 bc
       0.035429493 0.0348366 -0.024944838 -0.019642642
000360 21 e1 d5 3a 40 f9 de bc a6 b9 c7 3b 75 fb f8 3c
       0.0016317704 -0.027218461 0.006095129 0.030393342
000370 67 49 98 b8 01 7e c0 bc 94 9f 1d 3c 42 c6 b7 bc
       -7.261597e-05 -0.023497583 0.009620566 -0.022433404
000380 81 66 32 3c e5 c7 b9 3c 77 6b 57 bc a2 73 b3 3c
       0.010888697 0.022678325 -0.01314818 0.021905724
000390 b5 bd 15 bc af e8 91 3b a7 ad 00 bb 42 47 94 bc
       -0.009139468 0.004452787 -0.0019634755 -0.018100385
0003a0 bf d8 4f 3c d6 61 27 3c d1 49 59 bc b1 7f e1 3c
       0.012685954 0.010216197 -0.013262228 0.027526708
0003b0 e4 ca 36 bd 5f 30 70 bc bc ce 58 bc c1 c5 c4 3b
       -0.044627085 -0.01465997 -0.013232883 0.0060050194
0003c0 2b 87 6e bc b5 e8 af bb 0e 55 00 3d b5 96 bd bc
       -0.014558594 -0.005368317 0.031331114 -0.023143152
0003d0 10 a5 34 3d ef 52 02 3d 5f 04 0d 3a ff 6a 65 bc
       0.04410273 0.031817373 0.00053793745 -0.014002561
0003e0 a9 98 25 3d ab 6d 7d 3b b1 2d ac bc 0e 83 03 bd
       0.04042879 0.0038670104 -0.021017881 -0.032107405
0003f0 f4 71 c3 bc 7a 63 51 3c 18 86 ec 3b c6 97 29 3c
       -0.023858048 0.012780065 0.0072181337 0.010351127

bias f4 [3]
000000 e3 85 32 3d 83 93 71 3d 0e 9b de 3c
       0.043584716 0.05897857 0.027173545
