archive/super_resolution/SRCNN_2/trained_models/SRCNN_reducedlr.pt (torch, 150296 bytes, 6 tensors)

weight f4 [64, 3, 9, 9]
0.010224658 -0.014260464 -0.02602419 0.014016181 -0.029478157 0.00021899973 -0.059606038 0.058440987
0.05033121 0.035491668 -0.03447949 -0.007058535 -0.034739908 0.060954913 -0.057257134 -0.012217076
0.023345696 0.052743748 0.00010009232 -0.026046757 0.008909787 -0.055750117 0.051686257 0.06653634
-0.0089701135 0.038306784 -0.023284005 -0.03977643 -0.02101083 0.04059727 -0.058726896 0.017142659
0.0055531785 0.065071456 0.02478615 -0.009099222 -0.020755036 0.052662387 -0.04153216 -0.05353914
-0.024350952 0.05375885 0.022282448 0.0614016 -0.021982472 0.00090683723 0.06296781 -0.027191577
-0.046298843 -0.0089755645 -0.034978934 -0.039986715 -0.037098847 -0.019558774 -0.004849731 0.014748761
-0.04548571 -0.039616294 -0.053592633 0.05577727 0.04043946 0.05355643 0.04834812 -0.039297156
0.04293959 0.032046035 -0.06279703 0.052645154 0.002022467 -0.014674559 -0.045643874 -0.021055372
-0.0050011766 -0.0550301 0.032244932 0.004925728 0.05099386 0.026721517 0.06188734 0.0022849764
0.05423998 -0.06133767 0.021046743 0.0041974396 0.05332965 0.016537704 0.04705382 -0.009274252
0.031097831 0.0068996637 -0.028254787 -0.05613608 0.025626177 -0.044728238 0.054540467 -0.0385745
0.047140427 -0.058963165 0.014174509 -0.01014198 0.047461707 0.06412861 0.06423922 0.034260146
0.031460088 -0.051225044 0.029677369 -0.0351016 0.055120826 -0.06142856 0.04635865 0.023921603
-0.0431121 -0.011817583 0.012483393 -0.031455047 0.05617209 -0.06214068 -0.002575113 -0.055479188
0.04142645 0.058508705 0.052416433 0.026001304 -0.023593023 0.04737124 0.0124432305 0.030671949
0.0563121 0.04940263 -0.057171155 0.051336132 0.040200002 0.042982217 -0.049822316 0.0010014591
0.061775513 0.03345886 0.010575811 0.045490727 -0.02401931 0.055258274 0.02396497 0.038752455
-0.00249544 0.032431826 0.025762027 0.049586058 -0.04484783 0.0054923743 -0.042929824 -0.016777093
0.03012834 0.045846503 -0.005153888 0.019654823 -0.019364323 -0.011265215 0.033409193 -0.057707895
0.03428052 -0.020091811 -0.05817431 -0.055779863 0.060046922 -0.010901973 -0.024822054 -0.052853476
-0.023148894 0.047217697 -0.028644035 0.061484113 0.051421497 0.017539851 -0.01670381 -0.0349223
-0.0030470944 -0.0047295396 0.015657013 -0.056678526 0.046763554 -0.03010953 0.04219842 0.054104358
0.032149337 -0.057228517 0.020850811 0.047240697 -0.038033698 -0.012931102 0.0008710295 0.06406373
0.05753812 0.054481503 0.06633143 -0.03418791 0.04480676 0.03410347 -0.04862455 0.009458468
0.011394446 -0.028275397 -0.02874177 0.05461765 0.051792596 0.06140229 -0.029789576 -0.0035391406
0.0140889175 -0.024212051 -0.035809662 -0.028055582 0.04095932 0.040290833 0.06184807 -0.05319534
0.0014026518 0.006743641 0.0070853624 0.011717318 -1.4008591e-05 -0.027181543 0.0048972736 -0.035369575
-0.03627006 0.030518753 -0.047767606 0.011222677 -0.0104737105 0.018226448 0.054139532 0.053134404
-0.044088393 -0.059345186 0.014687702 -0.037354972 -0.022438366 -0.06371937 -0.017919281 -0.0057923887
0.0038056106 0.029265383 0.047918275 -0.036047816 0.06266471 0.018129155 0.03369517 0.0027334169
0.002373442 0.015206486 -0.03585482 -0.05149425 -0.034830354 -0.044688523 -0.03497576 0.037114337
00000000: 5385 273c b9a4 69bc af30 d5bc 20a4 653c
00000010: 2d7c f1bc 4ba3 6539 7625 74bd d15f 6f3d
00000020: 1928 4e3d b65f 113d 5e3a 0dbd 484b e7bb
00000030: 6f4b 0ebd dcab 793d 7586 6abd 212a 48bc
00000040: 793f bf3c d409 583d a8e8 d138 0260 d5bc
00000050: 5bfa 113c 3c5a 64bd f8b4 533d 3444 883d
00000060: 62f7 12bc 93e7 1c3d 19be bebc 9cec 22bd
00000070: e71e acbc 5349 263d 9d8b 70bd c36e 8c3c
00000080: 70f7 b53b 2f44 853d 530c cb3c e714 15bc
00000090: 7706 aabc 84b4 573d a01d 2abd db4b 5bbd
000000a0: a67b c7bc 3d32 5c3d ae89 b63c 3e80 7b3d
000000b0: 9614 b4bc d1b8 6d3a 44f5 803d dfc0 debc
000000c0: dba3 3dbd 3f0e 13bc 1246 0fbd 1cc9 23bd
000000d0: f6f4 17bd b939 a0bc 7eea 9ebb caa4 713c
000000e0: 394f 3abd b244 22bd f383 5bbd b576 643d
000000f0: d9a3 253d fd5d 5b3d ae08 463d 0ef6 20bd
00000100: 6ce1 2f3d b442 033d bb9b 80bd 72a2 573d
00000110: 5e8b 043b 906d 70bc 12f5 3abd 517c acbc
00000120: e9e0 a3bb 3e67 61bd 4313 043d 0068 a13b
00000130: f0de 503d 15e7 da3c 947d 7d3d 8bbf 153b
00000140: be2a 5e3d 353d 7bbd 386a ac3c ad8a 893b
00000150: 3170 5a3d 147a 873c 82bb 403d 08f3 17bc
00000160: e1c0 fe3c 9316 e23b 9576 e7bc f2ee 65bd
00000170: fded d13c f534 37bd d365 5f3d 4b00 1ebd
00000180: 5216 413d 5c83 71bd 333c 683c 8c2a 26bc
00000190: 3567 423d dc55 833d da8f 833d 5e54 0c3d
000001a0: 4bdc 003d 5ad1 51bd f41d f33c b2c6 0fbd
000001b0: 60c6 613d 849c 7bbd 91e2 3d3d 3df7 c33c
000001c0: 5096 30bd 899e 41bc 2587 4c3c 02d7 00bd
000001d0: b514 663d 3a87 7ebd 3ac3 28bb 253e 63bd
000001e0: c8ae 293d d3a6 6f3d 9db2 563d b000 d53c
000001f0: 2846 c1bc 5808 423d b1de 4b3c bd43 fb3c
00000200: 84a7 663d 6a5a 4a3d 4d2c 6abd d645 523d
00000210: c2a8 243d 1f0e 303d 7c12 4cbd 6443 833a
00000220: 5208 7d3d 280c 093d 2b46 2d3c 7c54 3a3d
00000230: 25c4 c4bc 8056 623d 2f52 c43c e5ba 1e3d
00000240: 898a 23bb 3cd7 043d e30a d33c c01a 4b3d
00000250: 5cb2 37bd 60f9 b33b 2fd7 2fbd 1d70 89bc
00000260: b5cf f63c 8bc9 3b3d f2e1 a8bb 2703 a13c
00000270: eea1 9ebc bd91 38bc 14d8 083d 1d5f 6cbd
00000280: bb69 0c3d 9597 a4bc 2f48 6ebd 6d79 64bd
00000290: c3f3 753d 309e 32bc 9f57 cbbc e37c 58bd
000002a0: c0a2 bdbc 5867 413d e5a6 eabc c4d6 7b3d
000002b0: 599f 523d bcaf 8f3c 6ed6 88bc b00a 0fbd
000002c0: c3b1 47bb 41fa 9abb 2343 803c be27 68bd
000002d0: 248b 3f3d 43a8 f6bc 40d8 2c3d 889c 5d3d
000002e0: 06af 033d 7368 6abd 52cf aa3c 767f 413d
000002f0: 39c9 1bbd f9dc 53bc cd55 643a d833 833d
00000300: 17ad 6b3d ff27 5f3d c6d8 873d 9f08 0cbd
00000310: 4b87 373d 15b0 0b3d 892a 47bd b1f7 1a3c
00000320: c5af 3a3c cea1 e7bc dc73 ebbc c2b6 5f3d
00000330: 7924 543d f880 7b3d 4509 f4bc edf0 67bb
00000340: 34d5 663c 5a58 c6bc 27ad 12bd d2d4 e5bc
00000350: f6c4 273d 0008 253d 6754 7d3d 5be3 59bd
00000360: 2fd9 b73a c3f9 dc3b 542c e83b fef9 3f3c
00000370: 7106 6bb7 d4ab debc 4f79 a03b b0df 10bd
00000380: ea8f 14bd 7702 fa3c f7a7 43bd 52df 373c
00000390: ed99 2bbc a24f 953c 6ac1 5d3d 76a3 593d
000003a0: 0896 34bd f013 73bd b0a4 703c 8701 19bd
000003b0: aad0 b7bc 4d7f 82bd 75cb 92bc 14ce bdbb
000003c0: 8d67 793b f5bd ef3c f445 443d e0a6 13bd
000003d0: 5b56 803d 9883 943c f203 0a3d 2023 333b
000003e0: c08b 1b3b a024 793c 81dc 12bd a2eb 52bd
000003f0: 46aa 0ebd 500b 37bd be42 0fbd 3405 183d

bias f4 [64]
0.0059131803 0.01988995 -0.022087255 0.033874437 -0.058474634 0.0011679519 -0.008504149 0.013422401
0.060362037 0.061358023 -0.0051471214 0.021428872 -0.039012667 0.037090413 0.017132096 0.04429467
0.030220471 -0.033650048 -0.050418563 -0.06454852 0.0068480647 0.008789592 0.031350452 -0.0066503105
0.06272073 -0.011299793 0.031160874 -0.02459808 0.031707197 0.026009174 -0.02232078 0.030216696
-0.04155098 -0.03896419 0.034365498 -0.03640589 0.0247838 0.058365617 0.021411015 -0.052333966
-0.046401743 -0.03003651 0.05777394 0.006178084 0.033467058 0.008861975 -0.029916668 0.028337358
0.012265551 0.03983838 0.027396673 0.022598045 0.012706079 -0.033699147 0.03880941 -0.050971486
0.010901435 -0.035874974 0.0040066615 -0.044918317 -0.020255435 -0.059400693 -0.05187276 -0.013193398
00000000: 5ac3 c13b 40f0 a23c 55f0 b4bc ecbf 0a3d
00000010: 1983 6fbd f615 993a fc54 0bbc a1e9 5b3c
00000020: 2f3e 773d 8d52 7b3d 2fa9 a8bb 9a8b af3c
00000030: bfcb 1fbd 1eec 173d 9c58 8c3c 546e 353d
00000040: ec90 f73c a2d4 09bd b283 4ebd 0432 84bd
00000050: bb65 e03b 3902 103c 5569 003d d9ea d9bb
00000060: ba73 803d c422 39bc 1745 ff3c ea81 c9bc
00000070: 68df 013d 3111 d53c 12da b6bc 0189 f73c
00000080: 5c31 2abd ea98 1fbd d6c2 0c3d 581e 15bd
00000090: 6507 cb3c c910 6f3d 2766 af3c 245c 56bd
000000a0: c10f 3ebd 210f f6bc 5ea4 6c3d 8671 ca3b
000000b0: c114 093d d131 113c cd13 f5bc bf23 e83c
000000c0: 73f5 483c 922d 233d fd6e e03c 891f b93c
000000d0: 282d 503c 1e08 0abd 9ef6 1e3d 7ac7 50bd
000000e0: ef9b 323c a3f1 12bd 504a 833b 45fc 37bd
000000f0: baee a5bc 244e 73bd 8878 54bd 1f29 58bc

weight f4 [32, 64, 3, 3]
-0.02263545 -0.009442608 -0.029824317 0.04068767 -0.018537188 -0.016201217 0.0156847 0.015075911
0.027136795 -0.03756411 -0.018458948 0.008105505 -0.037739225 -0.00049750746 0.039829265 -0.011536103
0.0039040148 0.017335158 -0.038963396 -0.024939656 -0.016691826 -0.037237186 0.020844819 0.03066882
-0.004804218 0.030644998 -0.029070955 -0.018386902 -0.016896173 0.0012350874 0.019089192 0.01341317
0.042404763 0.003749767 -0.029549269 0.00949418 0.007821439 0.0021865205 -0.022640131 0.035110727
0.036838867 -0.029934412 0.008155843 0.013363674 -0.022482987 0.002696042 0.0023288336 -0.001522194
0.03085223 0.029190259 0.03700798 0.012733957 0.006054367 0.03234986 0.011706531 -0.013756584
0.037631143 0.033115465 -0.017432338 -0.00412092 0.018801987 -0.0057481714 0.013326574 -0.015492624
-0.0031578094 -0.016444009 0.03644311 0.025122631 0.04070944 -0.020649817 0.0008074539 -0.029082855
0.00071173185 0.0051489286 -0.029951295 0.031288896 -0.0001807156 0.018507715 -0.015902502 0.021166414
0.0277378 0.013093075 -0.0070181605 -0.011091783 0.014622308 0.0018878367 -0.0032617208 -0.03753988
-0.00509191 -0.014519293 -0.010291668 -0.0016073937 -0.035195194 0.007472347 0.031101543 0.035909835
-0.0060784565 0.016267158 0.0014490784 0.0046919305 0.020625317 0.039524484 0.00026220272 0.04039695
0.008803341 0.019058205 0.026211346 -0.0048088077 -0.008433336 0.032260537 0.031519696 0.008128415
0.01042117 -0.0004300228 0.01562818 -0.0111639695 0.04152993 -0.008682771 0.005696511 0.018449342
-0.008787436 0.023800952 -0.028837357 0.010422643 0.03245729 -0.0325383 -0.017138578 0.023472603
-0.015219163 -0.03207172 0.0144863725 0.0044911006 0.008021077 -0.0034741694 -0.030773595 0.008422457
0.007854739 0.011455022 -0.0230246 -0.031497426 -0.025541577 -0.010446785 -0.021043364 0.04082719
0.018942181 -0.00064648397 -0.030064126 -0.031458832 0.008835157 0.008421606 0.02137776 0.036311302
-0.014563512 -0.030873636 -0.032524373 0.016100338 0.04719603 0.050897956 0.049680218 0.024810025
0.037939552 0.021018205 -0.023178842 -0.025918463 -0.02248293 -0.0041391035 -0.029976226 -0.031545583
-0.018031197 0.028408153 -0.0038841916 0.030293094 -0.02830882 0.005058113 0.007598222 -0.035715662
-0.010196452 0.03928369 0.0196146 0.0310494 0.031423908 0.0101988325 0.032750502 -0.004482247
0.041589443 -0.0038917686 0.012227262 -0.014751163 0.00819241 0.0066730985 -0.026861237 0.0009675098
0.021858443 -0.03193886 0.02112869 -0.02316691 -0.035855323 -0.024533527 0.026441267 0.023057343
0.022247413 -0.030762663 0.020246094 0.044854775 -0.032909956 -0.0223736 -0.020119527 0.020549644
0.022575745 -0.03097571 -0.0017491035 -0.029050574 0.021018336 0.04126065 -0.008966318 -0.032571852
-0.0075037223 0.02367096 -0.0026425205 0.03125 -0.020571273 -0.02153038 0.00010095601 0.007552903
0.0042620315 -0.03563005 0.021008356 0.019100359 0.013707171 0.033774704 -0.020210534 -0.00029257074
0.031048002 0.027164642 -0.0037214598 -0.029546008 -0.04090686 0.00887803 0.020158354 -0.04051265
0.041893385 -0.023981761 -0.03974121 -0.0021874022 0.04370884 0.008964609 -0.034788705 -0.007737723
0.027483279 0.015869578 0.0005127225 0.032090556 -0.01862409 0.039633647 0.03423867 -0.028644307
00000000: fb6d b9bc 2bb5 1abc 2052 f4bc 1da8 263d
00000010: 4ddb 97bc 6ab8 84bc 337d 803c f400 773c
00000020: fc4d de3c d3dc 19bd 3837 97bc f4cc 043c
00000030: 7294 1abd 296b 02ba 0324 233d ec01 3dbc
00000040: 80da 7f3b 7602 8e3c 1598 1fbd 404e ccbc
00000050: 4cbd 88bc 0586 18bd c1c2 aa3c 2d3d fb3c
00000060: b46c 9dbb 380b fb3c 3626 eebc 21a0 96bc
00000070: d869 8abc a8e2 a13a f060 9c3c eac2 5b3c
00000080: 9eb0 2d3d a7be 753b 4f11 f2bc 7a8d 1b3c
00000090: 7e25 003c ba4b 0f3b cc77 b9bc 44d0 0f3d
000000a0: 5ae4 163d 0339 f5bc 16a0 053c 50f3 5a3c
000000b0: 3e2e b8bc 14b0 303b 589f 183b 5b84 c7ba
000000c0: d1bd fc3c 6920 ef3c ae95 173d 16a2 503c
000000d0: b663 c63b 4981 043d c0cc 3f3c 4c63 61bc
000000e0: 1d23 1a3d 15a4 073d 43ce 8ebc c808 87bb
000000f0: a006 9a3c 285b bcbb b457 5a3c c6d4 7dbc
00000100: 40f3 4ebb 96b5 86bc 5f45 153d facd cd3c
00000110: f1be 263d ce29 a9bc 50ab 533a 2b3f eebc
00000120: 8493 3a3a 58b8 a83b 6b5c f5bc c928 003d
00000130: 797e 3db9 7e9d 973c f745 82bc 3065 ad3c
00000140: 623a e33c 5684 563c 99f8 e5bb 4fba 35bc
00000150: 6892 6f3c 4a71 f73a 98c2 55bb 6bc3 19bd
00000160: 09da a6bb 54e2 6dbc 629e 28bc 2faf d2ba
00000170: d628 10bd 97da f43b aac8 fe3c 3116 133d
00000180: ca2d c7bb b442 853c 01ef bd3a c4be 993b
00000190: 6df6 a83c 6de4 213d 4178 8939 4677 253d
000001a0: e33b 103c f41f 9c3c 2db9 d63c 3493 9dbb
000001b0: fa2b 0abc a023 043d cc1a 013d 0b2d 053c
000001c0: 8ebd 2a3c af74 e1b9 ab06 803c 15e9 36bc
000001d0: 4a1b 2a3d 2e42 0ebc cca9 ba3b 1323 973c
000001e0: 2ef9 0fbc 37fa c23c 523c ecbc bcc3 2a3c
000001f0: eff1 043d e146 05bd 3466 8cbc 9e49 c03c
00000200: cc59 79bc a35d 03bd 4058 6d3c 152a 933b
00000210: d66a 033c e4ae 63bb e818 fcbc 58fe 093c
00000220: 2ab1 003c d8ad 3b3c 169e bcbc 7203 01bd
00000230: 923c d1bc fe28 2bbc 2263 acbc 693a 273d
00000240: a22c 9b3c ce78 29ba 0b49 f6bc fada 00bd
00000250: 56c1 103c c7fa 093c 6a20 af3c 29bb 143d
00000260: cc9b 6ebc b5ea fcbc 4738 05bd dbe4 833c
00000270: a050 413d 607a 503d 7c7d 4b3d 653e cb3c
00000280: 8166 1b3d 5f2e ac3c 8ee1 bdbc f552 d4bc
00000290: 1f2e b8bc 51a1 87bb b490 f5bc f135 01bd
000002a0: 29b6 93bc 37b8 e83c ec8d 7ebb 3929 f83c
000002b0: e6e7 e7bc 87be a53b 81fa f83b 964a 12bd
000002c0: 050f 27bc efe7 203d ccae a03c 505b fe3c
000002d0: 5bb6 003d 0119 273c 6425 063d d0df 92bb
000002e0: b159 2a3d 0b0d 7fbb db54 483c ddae 71bc
000002f0: 7539 063c 02aa da3b 190c dcbc 7ca0 7d3a
00000300: 7a10 b33c 52d2 02bd 1316 ad3c 88c8 bdbc
00000310: 08dd 12bd 89fa c8bc 5b9b d83c c1e2 bc3c
00000320: 3540 b63c fb01 fcbc 23db a53c a4b9 373d
00000330: 97cc 06bd d748 b7bc b5d1 a4bc ba57 a83c
00000340: c5f0 b83c c6c0 fdbc 2d42 e5ba 78fb edbc
00000350: a52e ac3c ed00 293d 77e7 12bc 106a 05bd
00000360: c9e1 f5bb 9ae9 c13c 232e 2dbb 0000 003d
00000370: 1685 a8bc 7b60 b0bc 58b8 d338 587e f73b
00000380: 83a8 8b3b d1f0 11bd b719 ac3c 5b78 9c3c
00000390: 0b94 603c 5857 0a3d 9090 a5bc 2e64 99b9
000003a0: 6158 fe3c 6288 de3c bce3 73bb 780a f2bc
000003b0: f48d 27bd 2875 113c 2223 a53c 98f0 25bd
000003c0: 6698 2b3d 6675 c4bc aec7 22bd 855a 0fbb
000003d0: 0a08 333d 4ce0 123c 9a7e 0ebd ba8c fdbb
000003e0: 9d24 e13c eb00 823c 3968 063a 6371 033d
000003f0: 8c91 98bc e456 223d d93d 0c3d 77a7 eabc

bias f4 [32]
0.03379785 0.038996533 0.024271408 0.032790847 0.014345729 -0.039030064 -0.038041174 0.0041856347
-0.044455364 -0.023939937 0.010582971 -0.03834587 -0.010804059 -0.030647783 -0.0125482585 0.03809576
0.031369336 0.030017529 0.032384742 0.015665255 -0.015163142 -0.021422176 0.015543571 0.0006223936
-0.011598298 -0.0014682473 0.033103883 0.043536033 -0.039569512 0.049130484 0.004501366 0.001702771
00000000: 9d6f 0a3d d4ba 1f3d d5d4 c63c b24f 063d
00000010: 590a 6b3c fddd 1fbd 10d1 1bbd a627 893b
00000020: d416 36bd b01d c4bc 3364 2d3c 8f10 1dbd
00000030: 8203 31bc 0f11 fbbc 3697 4dbc 4d0a 1c3d
00000040: 227d 003d 52e7 f53c dda5 043d 6c54 803c
00000050: d46e 78bc 8f7d afbc 76aa 7e3c 2128 233a
00000060: ca06 3ebc 3472 c0ba f097 073d d752 323d
00000070: a413 22bd 0c3d 493d 3280 933b 842f df3a

weight f4 [3, 32, 5, 5]
0.024021547 0.036313035 0.027985854 0.024698438 0.030245375 0.029238407 -0.009314564 0.013479853
0.012046431 -0.015525353 -0.010943759 0.0020971198 0.012399026 -0.013599233 0.008288622 -0.02203328
0.00046622148 -0.021068262 0.034255024 -0.014426804 0.010014691 0.009234154 -0.030160638 0.022024538
0.00835587 0.021519186 0.0011312927 -0.0301841 0.014016945 0.027611386 0.011370595 0.031749405
0.012514863 0.0051835882 0.010454877 0.029461684 0.02239084 -0.020761523 0.008812027 0.036766477
-0.0052944445 0.02206757 0.0012448152 -0.011375355 0.035339735 0.022335354 0.0028693639 -0.030048046
0.00615472 -0.012477275 -0.026321474 0.007509511 -0.0024292693 -0.03522415 -0.00047248896 -0.0152821485
-0.017024575 0.010304198 0.03139664 -0.020446159 0.010904259 0.00939725 0.004644871 -0.026266344
0.0024272928 -0.02303834 0.032827307 -0.009592843 -0.019217206 0.018445332 -0.007232029 -0.0014470125
0.0053947554 -0.021797158 -0.029935332 0.027336692 0.0017214734 -0.006993302 -0.01866563 -0.021563534
-0.02114827 0.030488135 0.031549595 -0.023301683 -0.0084595485 -0.012035018 -0.029938826 0.022042282
-0.017642757 -0.034542944 -0.0066146636 0.005191988 0.020926515 -0.02457315 -0.024214515 0.007995333
-0.025835011 -0.014619409 0.016538851 0.015250652 0.0201851 -0.0016493184 -0.009923799 -0.0050933673
0.030522568 -0.0024034893 0.017212192 0.014708147 -0.008631519 -0.019434137 -0.0098457355 -0.013968747
-0.021847455 -0.0077890013 -0.013589177 0.029715354 -0.0030027006 -0.020879643 0.00013252403 0.0020671848
0.0010101176 0.0042114975 0.00013480305 -0.02654931 0.032344505 -0.006284155 -0.008945658 0.009211984
0.014144574 -0.021069594 -0.015044559 -0.023989823 -0.021452531 -0.033773538 0.020657517 -0.02903399
0.032232925 -0.0034829332 0.010932951 0.025602896 -0.0098578725 0.019228857 0.00048062045 -0.031687163
0.032261107 -0.015922567 -0.022387475 -0.005193313 0.020569872 -0.0346724 0.008904252 -0.0014061546
0.027798142 -0.015944853 -0.024387019 -0.009358693 -0.031263355 0.01369791 -0.020619027 -0.030194433
0.029719058 -0.00842942 0.0023304706 0.03115419 0.025370136 -0.017065318 -0.032154597 0.020880468
-0.022599604 0.008041315 -0.015418831 0.015805196 0.0051394086 0.030494865 0.0018359432 0.024567518
-0.019641321 0.027582088 -0.0023130332 0.028311333 -0.028340245 -0.033484872 0.031817466 -0.03330022
0.017553726 -0.033529535 0.03136118 -0.012221569 -0.009452225 -0.01122927 -0.0034326562 -0.009439428
-0.005583022 0.016951712 -0.016196068 0.033623584 -0.0169589 0.022359481 0.00083264126 0.015475645
-0.008380342 -0.031738274 -0.0028225067 0.021951798 0.016230822 0.0033561622 -0.020438313 0.0098169735
0.026996072 0.0071647335 -0.018642746 0.035189193 -0.029971987 0.0054775476 -0.014007497 0.022725321
0.01999579 -0.025017852 -0.018671932 0.005412035 0.0037055328 -0.017481772 0.010052466 0.01897876
4.2019616e-05 -0.02308093 -0.027990654 -0.007941343 -0.017064897 -0.02196261 -0.016841194 0.030571003
-0.005959021 -0.007132195 -0.031232823 0.004724726 0.026074637 -0.016806727 0.015364576 0.03260706
-0.008511076 -1.0546297e-05 -0.03016187 -0.019096794 -0.0034525655 -0.003251277 -0.029944595 0.012178667
0.033755694 -0.008937089 -0.0039307238 -0.007971415 0.028160648 -0.0074899816 0.01122465 0.024892697
00000000: d6c8 c43c fabc 143d 9742 e53c 6154 ca3c
00000010: 26c5 f73c 6285 ef3c 1d9c 18bc 9ada 5c3c
00000020: 655e 453c 0d5e 7ebc 744d 33bc d56f 093b
00000030: 4925 4b3c 51cf 5ebc 00cd 073c 237f b4bc
00000040: 306f f439 5997 acbc ff4e 0c3d 675e 6cbc
00000050: a914 243c d94a 173c 7113 f7bc ce6c b43c
00000060: 0fe7 083c 0149 b03c e247 943a a544 f7bc
00000070: 54a7 653c 4631 e23c bb4b 3a3c aa0b 023d
00000080: 240b 4d3c 17db a93b ef4a 2b3c a159 f13c
00000090: ff6c b73c 1214 aabc 5260 103c 7298 163d
000000a0: 057d adbb 0cc7 b43c 1129 a33a b25f 3abc
000000b0: 66c0 103d a2f8 b63c f00b 3c3b 5227 f6bc
000000c0: 89ad c93b 7c6d 4cbc 22a0 d7bc 5812 f63b
000000d0: 6034 1fbb 3347 10bd 65b8 f7b9 fa61 7abc
000000e0: 1f77 8bbc f0d2 283c c399 003d b47e a7bc
000000f0: c7a7 323c ecf6 193c 0134 983b 842c d7bc
00000100: 3713 1f3b e7ba bcbc ed75 063d 4d2b 1dbc
00000110: 676d 9dbc aa1a 973c a8fa ecbb afa9 bdba
00000120: 7dc6 b03b f48f b2bc f13a f5bc 33f1 df3c
00000130: 10a3 e13a 1228 e5bb aae8 98bc 02a6 b0bc
00000140: 233f adbc 41c2 f93c 263a 013d 2ce3 bebc
00000150: eb99 0abc 862e 45bc 4542 f5bc 0492 b43c
00000160: 8b87 90bc e77c 0dbd d2bf d8bb 8d21 aa3b
00000170: 156e ab3c a14d c9bc 855d c6bc dbfe 023c
00000180: f2a3 d3bc 3f86 6fbc 7c7c 873c dfdd 793c
00000190: 395b a53c f12d d8ba 6e97 22bc 43e6 a6bb
000001a0: 770a fa3c dc83 1dbb 9500 8d3c 71fa 703c
000001b0: 376b 0dbc 5734 9fbc 0250 21bc 2cdd 64bc
000001c0: 6ff9 b2bc e13a ffbb 24a5 5ebc 9d6d f33c
000001d0: f5c8 44bb c90b abbc 26f6 0a39 9b79 073b
000001e0: ec65 843a 9a00 8a3b eb59 0d39 f07d d9bc
000001f0: ac7b 043d 50eb cdbb cf90 12bc dded 163c
00000200: a5be 673c 249a acbc 747d 76bc 4e86 c4bc
00000210: 38bd afbc 1f56 0abd f439 a93c b1d8 edbc
00000220: ac06 043d ec41 64bb 1f20 333c 2abd d13c
00000230: ea82 21bc d685 9d3c c9fb fb39 66ca 01bd
00000240: 3924 043d 0b70 82bc f065 b7bc ab2c aabb
00000250: 2682 a83c a604 0ebd 24e3 113c b84e b8ba
00000260: eeb8 e33c c89e 82bc 49c7 c7bc 3455 19bc
00000270: 010e 00bd 336d 603c 3ce9 a8bc 515a f7bc
00000280: 6275 f33c 8d1b 0abc cfba 183b 1237 ff3c
00000290: 08d5 cf3c 91cc 8bbc 8ab4 03bd 840d ab3c
000002a0: ce22 b9bc b8bf 033c 449f 7cbc e679 813c
000002b0: 7c68 a83b 5ed0 f93c 08a4 f03a d241 c93c
000002c0: d6e6 a0bc d5f3 e13c 4296 17bb 2bed e73c
000002d0: cd29 e8bc 6f27 09bd 0853 023d d065 08bd
000002e0: d5cc 8f3c 4456 09bd 9574 003d fa3c 48bc
000002f0: 81dd 1abc f9fa 37bc 6af6 60bb d5a7 1abc
00000300: c8f1 b6bb 51de 8a3c 9ead 84bc e2b8 093d
00000310: 64ed 8abc 3b2b b73c 9c45 5a3a 8f8d 7d3c
00000320: b44d 09bc feff 01bd cef9 38bb 42d4 b33c
00000330: 80f6 843c 0ff3 5b3b 406e a7bc 5fd7 203c
00000340: de26 dd3c 24c6 ea3b acb8 98bc 8b22 103d
00000350: d087 f5bc 007d b33b b37f 65bc 742a ba3c
00000360: 36ce a33c 3df2 ccbc e1f5 98bc 7157 b13b
00000370: 86d8 723b ef35 8fbc 19b3 243c 5879 9b3c
00000380: 383e 3038 3814 bdbc a84c e5bc 681c 02bc
00000390: afcb 8bbc eeea b3bc 8bf6 89bc 0a70 fa3c
000003a0: e443 c3bb 30b5 e9bb fadb ffbc e0d1 9a3b
000003b0: 7a9a d53c 43ae 89bc b4bb 7b3c fb8e 053d
000003c0: 0a72 0bbc 00f0 30b7 0716 f7bc e170 9cbc
000003d0: 7044 62bb 6013 55bb 5e4e f5bc 0889 473c
000003e0: 6943 0a3d de6c 12bc 4dcd 80bb 8a9a 02bc
000003f0: 29b1 e63c 856e f5bb 98e7 373c c5eb cb3c

bias f4 [3]
0.0010338523 -0.0038973156 -0.011549162
00000000: 5482 873a 1b6a 7fbb b238 3dbc
