Super Resolution/SRCNN_2/trained_models/SRCNN.pt (torch, 149876 bytes, 6 tensors)

weight f4 [64, 3, 9, 9]
00000000: ff14 93bb 614c e1bc 443c f43b 614b c6bc
00000010: 9e3c 0cbd e900 20bd 78ec 6b3d 1c7d 8bbc
00000020: f5ec 2cbd 7f9d b2bb 1911 88bc b675 4c3d
00000030: 187d 43bd 95fb 13bd 8524 293d b78d bdbc
00000040: e7c5 3a3d 8aee 4bbd fa3e 90bc c5ca 7abc
00000050: c0c7 883c ae24 733d 6f78 123d cfc6 413d
00000060: 9e1f ccbc 582a 213d 9bbc 80bd c137 743d
00000070: a883 d9bc fd48 7fbd c4f5 2a3d 68d4 32bd
00000080: 4178 253c edfb 233d 77f7 db3c 0503 9c3c
00000090: fc3a 60bd 80fe 28bc 5e1c 7ebc dce7 82bb
000000a0: ec08 4abd 3e85 9f3b 0c02 1dbd 2757 903c
000000b0: 87aa 54bc 4e2c 8ebc 2d13 ed3c 28d2 dbbb
000000c0: 372c 503d d5ad 6fbd e77d 81bd 980f 82bd
000000d0: 0dc9 703d 6c9a 95bb a764 323c 065d 59bc
000000e0: ad70 8f3c d7d2 213d 1133 6f3d 9fe1 013c
000000f0: 1b77 eabc 4be2 bebc 3539 5d3d adf5 603c
00000100: 70ad 98bb 9c30 41bd 103d d33c 1d6e 7f3c
00000110: b1ff cebc 5524 273d 5d03 923c fa1e 643d
00000120: ec57 6d3d 94d0 803b 2bc2 e43c ac81 e6bc
00000130: abbd 353d ca5a 463c bb80 e23c 156d 0b3d
00000140: 3783 b8bc a861 92bc d9bb ef3c 47e5 feb8
00000150: 14a8 83bc e235 2cbc 6419 633d cdb6 4ebc
00000160: 4d20 b0bb 947c 6bbd 1028 283d d97d 143c
00000170: 27c9 2cbd 9cc9 22bc 02ee a7bc ad3b 81bc
00000180: fec5 04bd e524 d9bc 7ef6 833c 8f8e 023d
00000190: da88 97bc 192d 5e3b 993a b1bc 62db ad3c
000001a0: b0d7 6ebd 7a27 6a3c fd81 15bd 6f61 20bd
000001b0: 3957 a2ba fe6c 303d 276f 95bc 7313 18bd
000001c0: cfbe 0bb9 b1f3 1cbd be6b d6bc e513 60bd
000001d0: 223c 4c3c d444 323c af3c 463d b613 0cbd
000001e0: 3662 51bd 26d0 653c 0d0b 39bc 62f6 0ebd
000001f0: 032a 0ebd 099d 3ebd 9f33 093d f624 903c
00000200: 4435 c2bc 5d2f 133d 0a9b 943c 040a a13c
00000210: 07a7 5d3d 343a 773d 9ba5 54bd 7662 ffbc
00000220: fc06 24bd 5d5a acbc 7e97 bebc a60c 67bd
00000230: cd10 eb3c 48c1 d3bc a0bf 753d 0ebf 81bd
00000240: 89ac 79bd 39f8 603d 6eac ed3c 320e 5c3d
00000250: 9965 043b 1e2d d73c 20a5 49bc cfa1 47bd
00000260: 0b6b 293d 5787 d53b 45b7 7bbd 74f9 33bd
00000270: 18bc cabc eee6 32bc bc80 553d 1e2d c63c
00000280: 83aa 733d edef 6c3d f9e5 f83b 40b8 133d
00000290: ace0 683d 946a 013c 28e3 78bd dd4a 77bd
000002a0: 08b8 dcbc a970 733d 19df 2a3d a49b b2bc
000002b0: 6f3d a33c 2a6a 2f3d f905 e73c 7bc5 7c3d
000002c0: 039a f8ba 49d5 74bd 3807 3fbb 4822 03bd
000002d0: 08ba d93c 422c 663c 36f1 4c3d b521 f73c
000002e0: ee11 fc3b f8fb 0c3d d6c5 713d 0f4e a9bc
000002f0: bbc4 f73c d8a4 8ebc 6cce 66bd 67fc 7ebd
00000300: c58f c1bc 865b 17bd b015 a8bb 0650 653c
00000310: 35ef dabb 6e46 0b3c 52eb 00bb 552c 503d
00000320: 1c4f 363b c3d3 3e3d 5e9c 7c3d b096 993c
00000330: 4aa4 13bd 8eca 3a3d a101 323d 4458 5fbd
00000340: 496e 8cbb d795 ccbb ff6d 60bd 115e ec3c
00000350: 417d 10bc 5999 e7bc 3cd4 003d 1c39 ffbc
00000360: ef19 3a3a 9975 ddbc de9c 5bbd 731f 5bbd
00000370: 24dc 6ebd 46b5 2c3a 777d 523c 8cb0 353d
00000380: 74cc 243d c5fd 453c 4010 4f3d f6cf f73c
00000390: 67ec 4e3d 9396 34bc aa23 243d 461b 73bd
000003a0: f1cf c03a 85f7 6abd 60b6 65bd f56f 5fbb
000003b0: 8af5 7a3d d776 71bd 9cd1 24bb 6e6c 1d3d
000003c0: 333f 96bb 1dea 5b3c aa78 bb3c d15b 03bd
000003d0: ac90 37bc 02d5 77bd 429e bc3b fefd 52bd
000003e0: b86a 41bd d8d2 4b3d 743b 393d f13c 24bd
000003f0: 02dc 6c39 0799 f83c 1299 70bd 2505 36bd
-0.004488587 -0.02750224 0.0074534733 -0.024205865 -0.034237497 -0.039063368 0.05759856 -0.01702743
-0.042218167 -0.005450904 -0.016609715 0.049916945 -0.04772672 -0.0361286 0.041294593 -0.023138864
0.04559889 -0.049788035 -0.017608155 -0.015307133 0.01669681 0.059361152 0.035759386 0.04730874
-0.02491742 0.039347023 -0.06285974 0.059623484 -0.026552036 -0.062325466 0.041738287 -0.043659598
0.010099472 0.040035177 0.026851399 0.019044409 -0.054743752 -0.010314584 -0.015509693 -0.003994925
-0.049324915 0.0048681786 -0.03833203 0.017619682 -0.01298011 -0.01735511 0.028939808 -0.006708402
0.050823417 -0.05851539 -0.06322842 -0.063506305 0.058785487 -0.0045655277 0.010888255 -0.013266807
0.017509783 0.039507713 0.05839831 0.007927327 -0.028621247 -0.023301264 0.054009635 0.013730449
-0.0046593472 -0.0471655 0.025785953 0.015590218 -0.025268408 0.040806133 0.01782387 0.055693604
0.057945177 0.0039311145 0.027924618 -0.028138004 0.044370335 0.012106607 0.027649274 0.034039576
-0.022523506 -0.017868832 0.029264377 -0.0001215437 -0.016071357 -0.010510894 0.055444136 -0.012616825
-0.0053749443 -0.057491854 0.04105383 0.009063208 -0.04218402 -0.009935763 -0.020499233 -0.015775526
-0.032415383 -0.02650685 0.016108748 0.031874236 -0.018497873 0.0033901392 -0.021634387 0.021222774
-0.058311164 0.0142916385 -0.03650092 -0.03915542 -0.0012385614 0.043072693 -0.018241478 -0.037127923
-0.00013327155 -0.03831834 -0.026174422 -0.054706473 0.012465509 0.010880668 0.048397716 -0.034198485
-0.051119052 0.014026677 -0.011294139 -0.034902938 -0.034708034 -0.04653648 0.033496495 0.01759575
-0.02370704 0.03593384 0.018140335 0.019658096 0.054114368 0.06035824 -0.051915746 -0.03117488
-0.040045723 -0.021039182 -0.023265596 -0.056408547 0.028694535 -0.025849 0.0599972 -0.06335269
-0.060955558 0.054924224 0.029012885 0.053724475 0.0020202158 0.02626663 -0.012307435 -0.048738297
0.04136185 0.006516378 -0.061454076 -0.04393907 -0.024747893 -0.010919316 0.052124724 0.024191435
0.059488785 0.057846 0.0075957743 0.036064386 0.05685489 0.007898945 -0.060763508 -0.06037413
-0.026943222 0.059433613 0.04171667 -0.02180273 0.019926755 0.042825855 0.02820109 0.06171177
-0.0018966798 -0.059773717 -0.002914859 -0.032015115 0.026577964 0.014048638 0.050034724 0.03016744
0.007692567 0.034419984 0.05902656 -0.020667104 0.030245176 -0.017412588 -0.056349203 -0.06225243
-0.023628125 -0.036952518 -0.0051295385 0.01399613 -0.0066813477 0.008500678 -0.0019671512 0.05082353
0.002781815 0.04658867 0.06167256 0.018748611 -0.03604535 0.045603327 0.043458585 -0.054527536
-0.004285608 -0.0062434482 -0.0547924 0.028853448 -0.008818925 -0.028271364 0.031452402 -0.031155162
0.00070992013 -0.027033614 -0.053616397 -0.05349679 -0.05831541 0.0006588291 0.012847296 0.04435782
0.040234044 0.012084429 0.050552607 0.03025053 0.05051842 -0.011022228 0.040073074 -0.05935218
0.0014710409 -0.05736496 -0.05608213 -0.0034093831 0.06126932 -0.058951225 -0.002514935 0.038433485
-0.0045851707 0.013422516 0.022884686 -0.032069985 -0.011203926 -0.060505874 0.0057561705 -0.051511757
-0.047220916 0.049761623 0.045222715 -0.04009718 0.00022588673 0.030346407 -0.05873973 -0.0444385

bias f4 [64]
00000000: dc17 70bd 6c20 c7bb 30f3 303d 9660 89bc
00000010: 08b2 5fbd 117f 7ebd c4c8 4e3b 0d24 4c3d
00000020: 370c cdbc bf4f 493d dd39 153c 0d08 afbc
00000030: 98e3 84bc 1ea5 1bbd c9ba eb3b ca84 ff3c
00000040: d718 4a3d 14ec 26bd a52b 1a3d 94e7 493d
00000050: c059 d33c 6ccc 16bd a308 723d 3f06 77bd
00000060: 0011 2b3d 2fc6 083d 00aa 783c d8bb d83c
00000070: d184 4f3d 3656 77bd 0e8c 21bd 0635 0cbc
00000080: 45a9 c6bc bbec 62bb b2f5 5fbd 206b 923c
00000090: a1c8 08bd b11e 7cbd 41aa 3dbd fcb8 a23c
000000a0: a8ef 16bd 6ce0 193d c0ce f83b af9f 10bd
000000b0: 528d 1c3d 2cce 713d 8939 0a3d 13ca d1bb
000000c0: b4f5 303d b25d 1cbd 1a2a 013c 70dd e6bc
000000d0: 2ea5 6dbd 1750 6b3d 6ca7 3abc e4ae 023d
000000e0: b514 0bbd 79bd 7cbd 5c37 fcbc 3592 82bd
000000f0: 17e0 d73c 04d0 1c3d 0cd0 28bd cf64 aebc
-0.058616504 -0.006076863 0.04320067 -0.016769689 -0.054613143 -0.0621329 0.003155277 0.04983907
-0.025030239 0.049148317 0.009108034 -0.021366144 -0.016221806 -0.037999265 0.0071938974 0.031191248
0.049340095 -0.040752485 0.03763928 0.049293116 0.025799632 -0.036816046 0.059090268 -0.06030869
0.04176426 0.033392128 0.01517725 0.026456758 0.050663773 -0.06038495 -0.039440207 -0.008557564
-0.024250636 -0.0034625966 -0.054677673 0.017873347 -0.03339446 -0.061552707 -0.046304945 0.019863598
-0.036849648 0.03756754 0.007593006 -0.035308536 0.03822071 0.05903451 0.033746276 -0.006402263
0.04320307 -0.038175292 0.007883573 -0.028181762 -0.058018856 0.057449427 -0.011392456 0.03190507
-0.033955295 -0.061704133 -0.030788116 -0.06375543 0.026351972 0.038284317 -0.041214034 -0.021288304

weight f4 [32, 64, 3, 3]
00000000: 10df d63c 2a7c 3c3c c833 063d d03d ccbc
00000010: d9d8 223d 173e 4fbc 3bd4 713c a3e2 0c3c
00000020: 89bd b53c 211d d1bc 9a64 0fbd 8964 a93c
00000030: 09fc 0c3d 6ca9 aabb db0a 59b9 7eda 2d3a
00000040: 644c 123d 5b6a a5bb 2709 d53c bf9a 01bd
00000050: 7ae6 913c c758 523b fee4 f93c b36a e5bc
00000060: 7102 1dbd 1e96 2a3c 0995 8b3c 7ecd 013d
00000070: 680d 363c 9c20 1dbd 9322 aa3c 4f57 66bc
00000080: d018 863c b02e 16bc 99ac bebc babb fabc
00000090: d2a2 343c f3b2 0cbb 131b 213d 2dbb 05bd
000000a0: 8c78 393b 0de3 2f3c 566d 683c b473 e3bb
000000b0: c1f3 e13c 06b8 f33c 00d1 31bc 6655 10bd
000000c0: 93a4 f6ba 1ed7 ec3c 6638 f93c 1507 243d
000000d0: e3d1 91bc a8e7 9bbb 8283 0f3c fbc2 0e3d
000000e0: 605e e0bc 38f0 bd3c 2ac3 c0bc 1aae c3bc
000000f0: 3b38 b03c 3110 33bc 514f 12bd 7cf8 cf3c
00000100: 993c 323c 9ad3 15bd d9dd 9e3a 82d6 123d
00000110: c33d 703c 4611 1dbd 2410 bd3c ad5c fcbc
00000120: c7e3 fdbc f060 07bd 5fbf 28bd e424 edbb
00000130: f927 c93c 916e c03c f26e 993c 4558 16bd
00000140: ea8a 293b 823a 13bb a35a fa3c 65b0 cf3b
00000150: 06c7 0a3d 4bbf 12bc d26c 203d c4b7 03bd
00000160: 5cc8 cfbb 8705 05bd b625 24bd 6381 b8bc
00000170: 76de ff3c ce83 82bc 3b5c 86bc 3ae4 dd3c
00000180: 402d fcbc 2f2e 0ebd 2070 043c 184d 21bd
00000190: 9dc8 153d 9906 1dbd 98d9 09bd 66b6 30bc
000001a0: d86b 113d dd89 f0bc 2cad fe3c 0232 17bd
000001b0: b9ff ebbc d816 6fbc ed9c 2a3c 3753 6f3c
000001c0: 2844 513c 21ba 1abc b90d 323c 2209 013d
000001d0: 94cd 16bc bfd6 fcbb 7b82 50bb fe7d 3c3b
000001e0: 8ca8 983c 53f4 c83b 7c59 403b 0b51 0dbc
000001f0: e428 2a3c 53b0 15bd e2de 283d a0b3 673c
00000200: 3b08 1e3d d265 40bc c107 80bc 7cd0 a9bc
00000210: 1aee 1cbc 3d05 12bd 3655 98bc 41cb 0a3d
00000220: 8015 f9bc 49b2 24bc b77f c0bc 626a 0cbd
00000230: 2bb3 13bc 4d2d 0a3c b780 0bbd 825b 153c
00000240: affb 023d eb62 9c3c 5987 c7bc d77c f9bc
00000250: e471 40bc 9aed 84bc 9307 473c 1dc3 ba3c
00000260: aa44 4bbc b530 963c 92bb 1c3c 1d68 c13c
00000270: dc28 173d 4f22 7dbc 771c babc 35e2 50bc
00000280: 144e 133c 2fed 9d3c e681 713a 48c4 74ba
00000290: 6a5a 23bd a4bf 34bb b96f 113d 52ab 873c
000002a0: 2072 10bd 1515 d93c 928d fbbc e55e 913c
000002b0: eafe a9bc b9d3 1abc a235 443c edfc 9b3c
000002c0: ae6f eaba 94ea 40ba 0d5e 6c3c 5a32 d43c
000002d0: c9c8 b33c 18ee c33c 44a2 4e3c 693d fa3c
000002e0: f904 643c 13cf bcbc 9628 d63c 73c6 083d
000002f0: 1046 eebc 5a01 1abd 2566 093d 2571 033d
00000300: cc2e 3d3c 0973 133d ab2a 183d 5604 f3bc
00000310: c306 d6bc 4925 1f3d efa8 a9bc 2be1 f8bc
00000320: 4745 1abd 8052 91bc b996 b23c 158a 15bd
00000330: b17a 0b3c 0cdc 4fbc 20f5 bb3c 9480 2d3c
00000340: 06f0 d9bc b606 5bbc 2ae1 913c 6823 a8bb
00000350: 6837 e53b 4068 5b3b 719e 0f3d a893 10bd
00000360: b1c8 bbbc 9a06 cabc f5a5 b0bc 38a5 283d
00000370: 38c6 fd3c dfec 0d3d ba54 d0bc 4e07 e93c
00000380: e395 76bc c2ab 923c 87d5 a43c 721d c53c
00000390: 1b09 81bb 5942 033d e146 18bd e40b 623c
000003a0: 2149 bebc 3f26 16bd 0d2d 1c3d 9146 afbc
000003b0: b486 b33b e2a7 fbbc 094d 14bc 3375 2dbc
000003c0: 62fd 3cbc 03fb 81bc cafa 49bc 1845 683c
000003d0: d898 f0bc 0933 c3bb 9b89 8b3c c8ca a0bc
000003e0: 5f21 ea3c 0500 0cbb 0c2b 49bc acef d5bc
000003f0: c3dd 123d 3c96 a4bb b495 b7bc 92a4 9a3c
0.026229411 0.011504212 0.032764226 -0.024931818 0.039757583 -0.012649081 0.014760072 0.008598956
0.022185104 -0.025526585 -0.03500805 0.020677822 0.034420047 -0.005208185 -0.00020698777 0.0006631984
0.035717383 -0.005048079 0.02600534 -0.031641718 0.017810095 0.0032096372 0.0305047 -0.02800498
-0.038332406 0.010411767 0.017038839 0.031690113 0.011111595 -0.038361177 0.02076844 -0.014058902
0.016369253 -0.009166405 -0.02327566 -0.030607093 0.0110251475 -0.0021468967 0.03933246 -0.032649208
0.0028300611 0.0107352855 0.014186224 -0.006941283 0.027582051 0.029750835 -0.010853052 -0.035237692
-0.0018817357 0.02891117 0.0304224 0.040045816 -0.017800277 -0.00475784 0.008759381 0.034853917
-0.027388752 0.023185834 -0.023530561 -0.023886729 0.021511188 -0.010929153 -0.035720173 0.025387041
0.010878705 -0.036578752 0.0012120559 0.0358491 0.014663163 -0.03834655 0.023078986 -0.03080591
-0.030992402 -0.03305143 -0.04119813 -0.0072370637 0.024555193 0.023490222 0.01872966 -0.036705274
0.0025870153 -0.0022465293 0.030560797 0.0063381665 0.03388121 -0.008956741 0.03916628 -0.032157674
-0.0063410234 -0.032475974 -0.040075026 -0.022522634 0.031234007 -0.01593199 -0.0164014 0.027086366
-0.030783296 -0.034712013 0.008083373 -0.039380163 0.036568273 -0.03833637 -0.03365478 -0.010785675
0.03550324 -0.029362613 0.031088434 -0.036912926 -0.028808462 -0.014592849 0.010413391 0.014607242
0.012772597 -0.009443791 0.01086753 0.03150285 -0.009204287 -0.0077160294 -0.0031816054 0.002876162
0.018635057 0.0061326413 0.0029350212 -0.008625279 0.010385726 -0.03654511 0.041228183 0.014141947
0.038582068 -0.011743026 -0.015628697 -0.020729296 -0.009578252 -0.035649527 -0.01859532 0.033885244
-0.03040576 -0.010052272 -0.0234984 -0.034281142 -0.009014885 0.008433652 -0.0340583 0.009116055
0.031978305 0.019090137 -0.024356531 -0.030455036 -0.011745904 -0.016226579 0.012147802 0.022798115
-0.0124065075 0.018333772 0.009566205 0.023609215 0.0369042 -0.015450074 -0.022718651 -0.012749244
0.008990783 0.019278137 0.0009212777 -0.00093371095 -0.039881147 -0.0027580047 0.035506938 0.016561184
-0.035265088 0.02649931 -0.030707154 0.017745445 -0.020751435 -0.009449893 0.011975678 0.019041503
-0.0017886066 -0.00073591736 0.01442672 0.025902916 0.021946328 0.023917243 0.012611929 0.03054686
0.013917201 -0.02304796 0.0261424 0.03339238 -0.029086143 -0.037598945 0.03354468 0.032090325
0.011546802 0.035998378 0.037150066 -0.029665153 -0.026126271 0.038853917 -0.020710437 -0.030380806
-0.037663724 -0.017739534 0.021800386 -0.03650864 0.008513139 -0.012686741 0.022944033 0.010589737
-0.02660371 -0.013368299 0.017807562 -0.005131174 0.0069951303 0.0033478886 0.03506321 -0.035297066
-0.022922846 -0.024661351 -0.02156351 0.04117319 0.030978307 0.034649726 -0.025431026 0.028445866
-0.015050384 0.017904166 0.020121349 0.024061892 -0.003937853 0.032045696 -0.03717697 0.01379678
-0.02322823 -0.036657568 0.0381289 -0.021395953 0.0054787043 -0.030719701 -0.00905157 -0.0105870245
-0.011535021 -0.015866762 -0.012327859 0.0141766295 -0.029369757 -0.0059570116 0.017033389 -0.019627944
0.028580366 -0.0021362316 -0.01227833 -0.026115261 0.03585602 -0.005022792 -0.022410251 0.018877301

bias f4 [32]
00000000: eba9 c63c 50a7 063d dc56 5ebc af44 2cbd
00000010: 41f5 253d 7103 2c3c 025f 0dbd 3313 cd3c
00000020: 0641 a8bc 5be4 aabb ce9b d9bc a088 85bc
00000030: e6a3 193c 7147 7e3b feb6 00bc e15c 223d
00000040: e612 14bd 58cb 10bb 316e 26bd fe50 0abd
00000050: f54f a43c 06ae b73c f3ad 993c 25c5 06bd
00000060: 324b 3bbc da66 403d 4c6a 27bd b1a0 2fbd
00000070: d31b dfbc 5491 163d 6b2d 52bb 403e 20bd
0.024250945 0.032874405 -0.013570514 -0.04205769 0.040517095 0.010498867 -0.034514435 0.025033569
-0.020538818 -0.0052152104 -0.026563551 -0.0163005 0.009377455 0.0038799907 -0.007856129 0.039639357
-0.036150835 -0.0022093859 -0.04063243 -0.033768646 0.020057658 0.022421848 0.018759703 -0.032902855
-0.011431502 0.046973087 -0.040872857 -0.042877857 -0.027234947 0.03675969 -0.0032070528 -0.039121866

weight f4 [3, 32, 5, 5]
00000000: e82a d6bc b8f5 cb3c e87c aa3c e0c4 0b3d
00000010: 2031 7b3b d991 e03c a3e6 a23c 2847 183c
00000020: dddf ae3c 35f1 9f3c cb1e 123d f8cc ef3c
00000030: 1e14 9b3c 82ed aabc d65d 023d d8e0 9c3b
00000040: 1104 c83c d37d 01bb b85a 133b 1e6d 963b
00000050: 4002 993c d012 c43c fea7 523b 7f9d 62bb
00000060: 6951 f53b 2511 afbc f836 0a3c 7eed 3bbc
00000070: 5148 573b dda2 503b 3a8b cb3c 8e59 ff39
00000080: d148 1c3d d66e c1bc 6137 c43c 2cf0 afbc
00000090: 8f1b 6dbc 15fa aabc 7ba3 b13c 9c45 123d
000000a0: 3b21 ed3c 9450 42bc 35a6 a63b 7b46 f6bc
000000b0: cfc5 08bd 353a a73b 02b1 9d3c 474e 043d
000000c0: 8dce d1ba 79de 083d 67d3 09bd 7170 123d
000000d0: c1f4 153b f083 a43c 2002 dbbc cc19 00bc
000000e0: 392f 54bc fb33 eab9 93e6 aebc 2a99 a03c
000000f0: 1620 83bc 63c5 af3c 981e 123b 565b afbb
00000100: c847 91bc 30a1 59bb 0776 0bbc 8218 a03b
00000110: e5c6 be3c 7837 c13c e81a f0bc 83af d2bc
00000120: 7d7c f9bc 29f2 023d 4862 1fbc f256 07bd
00000130: c506 c43c 6d42 0d3b c44f 6cbc aa51 d6bc
00000140: 8d11 083d a3d4 d3bc ac6a c63c 651f f4bc
00000150: 5dc2 073b 6171 b33c f60d 68bc 7da1 ca3c
00000160: d92e f43c c900 ef3c 4360 4c3c 640c d73c
00000170: ab47 8bbc 4e93 fc3a b771 793c ce9d 493b
00000180: 2b67 e13c a38d 9fbb bee3 c63c 8b08 a43c
00000190: 147c afbb 84ad 263d ff67 1e3d e4f8 063c
000001a0: cecf 8a3c d409 6e3c db77 383c 6d9b 9f3c
000001b0: cbbf 7abc b441 3b3c 21a6 403c 47ad c8bc
000001c0: 04f7 243b 542a 053d b9ea bd3c ead7 3abc
000001d0: 2986 a03c cac3 e23b 3301 913c 5453 bc3b
000001e0: 47e6 81bc 9df0 b0bc 4fac a9bc 3362 6e3c
000001f0: 3ab7 a63c a02c 41bc 74e6 f4bb 8252 b33c
00000200: a059 94ba ba8f d2bc 3ae5 d83c 9f7d 02bd
00000210: 3681 b33c 6348 e9bc 3040 46bb 04e4 bfbb
00000220: de8d b2bc a4fe bcbc 3c24 4fbc 0041 9b3a
00000230: b426 d1bc 1485 0abd 00c2 adbb a875 c0bc
00000240: bcb1 003c f04e b4bb a477 a7bc 1c2a 553c
00000250: 546b 94bb 48c3 9bbc b6e7 cc3c 6145 9abc
00000260: 1519 aebc 863f 023d 219e e6bc 0309 853b
00000270: b6fb 213c ae93 1bbc f04f b73c 57ce 0b3d
00000280: 95ac bf3c 26da ec3c 778b 1c3c b30c 0d3c
00000290: 06b7 83bc f1d0 cbbb 39d6 69bc 02c7 a5bc
000002a0: c26e f33b 45c6 3a3c 9013 c23b c055 533c
000002b0: 5000 123d 9423 d53c b147 483b e031 713b
000002c0: 627a 62bc e56a a83c ac08 e73c 803f 98bc
000002d0: f862 b7bc 9510 a6bb 7702 dfbb 83a5 03bd
000002e0: 14ba f8bc 4577 e9bc c6a2 45bc ef1c 1ebc
000002f0: b4fd fc3c 5c8c 09bd cdd2 edbc 1247 013d
00000300: e25d 7739 8996 ea3c 84cd 213c 0b94 e1bc
00000310: 820c 203c 4739 b63c 0bc8 cd3b cd3d f23c
00000320: 0b43 0dbb 7b58 283c 54e7 06bc 8a5c dbbc
00000330: 846e 82bb d899 f2bc 4455 b33c c03d d2bc
00000340: 5f71 b4bc 1e02 92bc d610 74bc 3f4b 623c
00000350: 0027 d33b d5e0 073d b708 af3c 45ad bf3c
00000360: bcf3 8dbb 022a 093d 0b04 3a3b b556 633c
00000370: 7cc9 a63b ea52 263c faa3 a2bc 4f34 00bc
00000380: b44b b0bc ed54 68bc d2aa 343b 8db2 b2bc
00000390: 9eb0 cc3c e870 9bbc b23f 2cbc 48bc e93c
000003a0: a171 9a3c 9e0b 5cbc 760a afbc 492e 123c
000003b0: d0d2 34bc 069e 1a39 52e7 d13c 6200 71ba
000003c0: 853e 47bb 4675 e0b9 db27 ad3c 3552 8d3a
000003d0: 6c71 d03c ebcd 87bc 2a76 a6bb 3754 e33c
000003e0: 01a0 353c c025 7cbc 17ee 8f3a 8981 a6bc
000003f0: 8850 273c 9275 903c e000 213d 85bb 473c
-0.026143506 0.024897441 0.020811513 0.0341233 0.0038328841 0.027413296 0.019885367 0.009294309
0.02134698 0.019524196 0.035673898 0.029272541 0.018930491 -0.020865206 0.03182777 0.0047875457
0.024416002 -0.0019758835 0.0022484493 0.0045906445 0.01867783 0.023934752 0.0032143588 -0.0034578738
0.0074865115 -0.02137048 0.008435957 -0.011470197 0.00328495 0.0031835355 0.024846662 0.00048704114
0.03815538 -0.023612421 0.023952188 -0.021476828 -0.0144719025 -0.020871202 0.021684399 0.035710916
0.02894651 -0.011860032 0.0050857314 -0.030062905 -0.03339177 0.0051033744 0.019249443 0.032301214
-0.0016006992 0.03341529 -0.033648875 0.035751764 0.002288148 0.020082444 -0.026734412 -0.00781865
-0.012950712 -0.00044670686 -0.02135018 0.019604284 -0.01600651 0.021456426 0.0022296067 -0.0053514643
-0.017734423 -0.0033207648 -0.008512027 0.004885734 0.0232882 0.02358602 -0.029309705 -0.025718456
-0.030454868 0.031969223 -0.009728022 -0.033041902 0.02392901 0.0021554485 -0.0144233145 -0.026161987
0.033219863 -0.025858229 0.024220787 -0.029800126 0.0020715215 0.02190465 -0.014163485 0.024735207
0.029807495 0.02917518 0.012474122 0.026251025 -0.017001947 0.0019269974 0.015224866 0.0030764225
0.027515015 -0.0048691793 0.024278518 0.020023605 -0.0053553674 0.04069282 0.038673397 0.008238051
0.016944792 0.01452871 0.0112590445 0.019483292 -0.015304516 0.011429239 0.011758358 -0.024496688
0.0025171647 0.03251107 0.023183214 -0.011404017 0.019595223 0.0069203125 0.017700767 0.005747238
-0.015856875 -0.021599108 -0.020712046 0.01454978 0.020351041 -0.011790425 -0.007473761 0.021889929
-0.0011318214 -0.0257033 0.026476491 -0.031858083 0.021912199 -0.0284769 -0.003025066 -0.005856039
-0.021796163 -0.02307064 -0.012642916 0.0011844933 -0.02553115 -0.03381832 -0.0053026676 -0.023493603
0.007854875 -0.005502574 -0.020442791 0.013010528 -0.004529396 -0.019014016 0.025012832 -0.01883191
-0.021252194 0.031798862 -0.028151574 0.004059912 0.009886673 -0.009495659 0.022376984 0.034132328
0.023397723 0.028912615 0.009554735 0.008608985 -0.016078483 -0.006219976 -0.014272266 -0.020236496
0.007428975 0.01139981 0.005922742 0.012898862 0.03564483 0.026017942 0.003056031 0.003680341
-0.013823124 0.020558784 0.028202377 -0.018584967 -0.02238606 -0.0050678947 -0.0068057138 -0.032140266
-0.030362166 -0.028499255 -0.012062734 -0.009650453 0.030882694 -0.033581123 -0.029031182 0.03156192
0.0002359073 0.028636234 0.009875659 -0.027536413 0.009768607 0.022244109 0.0062799505 0.029570485
-0.0021554853 0.010275002 -0.008233864 -0.026777525 -0.0039804596 -0.029614374 0.021891244 -0.02566421
-0.022026716 -0.017823275 -0.014896592 0.013811885 0.006443858 0.0331734 0.02136646 0.023398051
-0.004332034 0.033487327 0.0028383757 0.013875653 0.005089937 0.010151604 -0.01985358 -0.007824971
-0.021520473 -0.014180404 0.0027567637 -0.021813655 0.024986561 -0.018974736 -0.010513233 0.028532162
0.01885301 -0.013430504 -0.021367293 0.008922168 -0.01103659 0.00014745453 0.025622997 -0.00091934775
-0.0030402255 -0.00042811985 0.021137169 0.0010781946 0.025444709 -0.016577682 -0.005080004 0.027750118
0.011085511 -0.01538986 0.001098099 -0.020325439 0.010212071 0.017634187 0.039307475 0.012190704

bias f4 [3]
00000000: d24d fc3c 14c3 213d 2863 723c
0.030798826 0.03949268 0.0147941485
